{
  "format": "graph-model",
  "generatedBy": "2.11.1",
  "convertedBy": "TensorFlow.js Converter v4.3.0",
  "signature": {
    "outputs": {
      "feature_fusion/concat_3": {
        "name": "feature_fusion/concat_3"
      },
      "feature_fusion/Conv_7/Sigmoid": {
        "name": "feature_fusion/Conv_7/Sigmoid"
      }
    }
  },
  "modelTopology": {
    "node": [
      {
        "name": "feature_fusion/Conv_7/weights",
        "op": "Const",
        "attr": {
          "value": {
            "tensor": {
              "dtype": "DT_FLOAT",
              "tensorShape": {
                "dim": [
                  {
                    "size": "1"
                  },
                  {
                    "size": "1"
                  },
                  {
                    "size": "32"
                  },
                  {
                    "size": "1"
                  }
                ]
              }
            }
          },
          "dtype": {
            "type": "DT_FLOAT"
          }
        }
      },
      {
        "name": "feature_fusion/Conv_7/biases",
        "op": "Const",
        "attr": {
          "value": {
            "tensor": {
              "dtype": "DT_FLOAT",
              "tensorShape": {
                "dim": [
                  {
                    "size": "1"
                  }
                ]
              }
            }
          },
          "dtype": {
            "type": "DT_FLOAT"
          }
        }
      },
      {
        "name": "feature_fusion/Conv_8/weights",
        "op": "Const",
        "attr": {
          "value": {
            "tensor": {
              "dtype": "DT_FLOAT",
              "tensorShape": {
                "dim": [
                  {
                    "size": "1"
                  },
                  {
                    "size": "1"
                  },
                  {
                    "size": "32"
                  },
                  {
                    "size": "4"
                  }
                ]
              }
            }
          },
          "dtype": {
            "type": "DT_FLOAT"
          }
        }
      },
      {
        "name": "feature_fusion/Conv_8/biases",
        "op": "Const",
        "attr": {
          "value": {
            "tensor": {
              "dtype": "DT_FLOAT",
              "tensorShape": {
                "dim": [
                  {
                    "size": "4"
                  }
                ]
              }
            }
          },
          "dtype": {
            "type": "DT_FLOAT"
          }
        }
      },
      {
        "name": "feature_fusion/mul_6/y",
        "op": "Const",
        "attr": {
          "value": {
            "tensor": {
              "dtype": "DT_FLOAT",
              "tensorShape": {}
            }
          },
          "dtype": {
            "type": "DT_FLOAT"
          }
        }
      },
      {
        "name": "feature_fusion/strided_slice_4/stack",
        "op": "Const",
        "attr": {
          "dtype": {
            "type": "DT_INT32"
          },
          "value": {
            "tensor": {
              "dtype": "DT_INT32",
              "tensorShape": {
                "dim": [
                  {
                    "size": "1"
                  }
                ]
              }
            }
          }
        }
      },
      {
        "name": "feature_fusion/strided_slice_4/stack_1",
        "op": "Const",
        "attr": {
          "dtype": {
            "type": "DT_INT32"
          },
          "value": {
            "tensor": {
              "dtype": "DT_INT32",
              "tensorShape": {
                "dim": [
                  {
                    "size": "1"
                  }
                ]
              }
            }
          }
        }
      },
      {
        "name": "feature_fusion/strided_slice_4/stack_2",
        "op": "Const",
        "attr": {
          "value": {
            "tensor": {
              "dtype": "DT_INT32",
              "tensorShape": {
                "dim": [
                  {
                    "size": "1"
                  }
                ]
              }
            }
          },
          "dtype": {
            "type": "DT_INT32"
          }
        }
      },
      {
        "name": "feature_fusion/mul_4/y",
        "op": "Const",
        "attr": {
          "value": {
            "tensor": {
              "dtype": "DT_INT32",
              "tensorShape": {}
            }
          },
          "dtype": {
            "type": "DT_INT32"
          }
        }
      },
      {
        "name": "feature_fusion/strided_slice_2/stack",
        "op": "Const",
        "attr": {
          "dtype": {
            "type": "DT_INT32"
          },
          "value": {
            "tensor": {
              "dtype": "DT_INT32",
              "tensorShape": {
                "dim": [
                  {
                    "size": "1"
                  }
                ]
              }
            }
          }
        }
      },
      {
        "name": "feature_fusion/strided_slice_2/stack_1",
        "op": "Const",
        "attr": {
          "dtype": {
            "type": "DT_INT32"
          },
          "value": {
            "tensor": {
              "dtype": "DT_INT32",
              "tensorShape": {
                "dim": [
                  {
                    "size": "1"
                  }
                ]
              }
            }
          }
        }
      },
      {
        "name": "feature_fusion/strided_slice_2/stack_2",
        "op": "Const",
        "attr": {
          "value": {
            "tensor": {
              "dtype": "DT_INT32",
              "tensorShape": {
                "dim": [
                  {
                    "size": "1"
                  }
                ]
              }
            }
          },
          "dtype": {
            "type": "DT_INT32"
          }
        }
      },
      {
        "name": "feature_fusion/mul_2/y",
        "op": "Const",
        "attr": {
          "dtype": {
            "type": "DT_INT32"
          },
          "value": {
            "tensor": {
              "dtype": "DT_INT32",
              "tensorShape": {}
            }
          }
        }
      },
      {
        "name": "feature_fusion/strided_slice/stack",
        "op": "Const",
        "attr": {
          "dtype": {
            "type": "DT_INT32"
          },
          "value": {
            "tensor": {
              "dtype": "DT_INT32",
              "tensorShape": {
                "dim": [
                  {
                    "size": "1"
                  }
                ]
              }
            }
          }
        }
      },
      {
        "name": "feature_fusion/strided_slice/stack_1",
        "op": "Const",
        "attr": {
          "value": {
            "tensor": {
              "dtype": "DT_INT32",
              "tensorShape": {
                "dim": [
                  {
                    "size": "1"
                  }
                ]
              }
            }
          },
          "dtype": {
            "type": "DT_INT32"
          }
        }
      },
      {
        "name": "feature_fusion/strided_slice/stack_2",
        "op": "Const",
        "attr": {
          "dtype": {
            "type": "DT_INT32"
          },
          "value": {
            "tensor": {
              "dtype": "DT_INT32",
              "tensorShape": {
                "dim": [
                  {
                    "size": "1"
                  }
                ]
              }
            }
          }
        }
      },
      {
        "name": "feature_fusion/mul/y",
        "op": "Const",
        "attr": {
          "value": {
            "tensor": {
              "dtype": "DT_INT32",
              "tensorShape": {}
            }
          },
          "dtype": {
            "type": "DT_INT32"
          }
        }
      },
      {
        "name": "resnet_v1_50/block3/unit_6/bottleneck_v1/Pad/paddings",
        "op": "Const",
        "attr": {
          "value": {
            "tensor": {
              "dtype": "DT_INT32",
              "tensorShape": {
                "dim": [
                  {
                    "size": "4"
                  },
                  {
                    "size": "2"
                  }
                ]
              }
            }
          },
          "dtype": {
            "type": "DT_INT32"
          }
        }
      },
      {
        "name": "feature_fusion/strided_slice_1/stack",
        "op": "Const",
        "attr": {
          "value": {
            "tensor": {
              "dtype": "DT_INT32",
              "tensorShape": {
                "dim": [
                  {
                    "size": "1"
                  }
                ]
              }
            }
          },
          "dtype": {
            "type": "DT_INT32"
          }
        }
      },
      {
        "name": "feature_fusion/strided_slice_1/stack_1",
        "op": "Const",
        "attr": {
          "dtype": {
            "type": "DT_INT32"
          },
          "value": {
            "tensor": {
              "dtype": "DT_INT32",
              "tensorShape": {
                "dim": [
                  {
                    "size": "1"
                  }
                ]
              }
            }
          }
        }
      },
      {
        "name": "feature_fusion/strided_slice_1/stack_2",
        "op": "Const",
        "attr": {
          "dtype": {
            "type": "DT_INT32"
          },
          "value": {
            "tensor": {
              "dtype": "DT_INT32",
              "tensorShape": {
                "dim": [
                  {
                    "size": "1"
                  }
                ]
              }
            }
          }
        }
      },
      {
        "name": "feature_fusion/mul_1/y",
        "op": "Const",
        "attr": {
          "dtype": {
            "type": "DT_INT32"
          },
          "value": {
            "tensor": {
              "dtype": "DT_INT32",
              "tensorShape": {}
            }
          }
        }
      },
      {
        "name": "resnet_v1_50/block2/unit_4/bottleneck_v1/Pad/paddings",
        "op": "Const",
        "attr": {
          "dtype": {
            "type": "DT_INT32"
          },
          "value": {
            "tensor": {
              "dtype": "DT_INT32",
              "tensorShape": {
                "dim": [
                  {
                    "size": "4"
                  },
                  {
                    "size": "2"
                  }
                ]
              }
            }
          }
        }
      },
      {
        "name": "feature_fusion/concat/axis",
        "op": "Const",
        "attr": {
          "dtype": {
            "type": "DT_INT32"
          },
          "value": {
            "tensor": {
              "dtype": "DT_INT32",
              "tensorShape": {}
            }
          }
        }
      },
      {
        "name": "feature_fusion/strided_slice_3/stack",
        "op": "Const",
        "attr": {
          "dtype": {
            "type": "DT_INT32"
          },
          "value": {
            "tensor": {
              "dtype": "DT_INT32",
              "tensorShape": {
                "dim": [
                  {
                    "size": "1"
                  }
                ]
              }
            }
          }
        }
      },
      {
        "name": "feature_fusion/strided_slice_3/stack_1",
        "op": "Const",
        "attr": {
          "dtype": {
            "type": "DT_INT32"
          },
          "value": {
            "tensor": {
              "dtype": "DT_INT32",
              "tensorShape": {
                "dim": [
                  {
                    "size": "1"
                  }
                ]
              }
            }
          }
        }
      },
      {
        "name": "feature_fusion/strided_slice_3/stack_2",
        "op": "Const",
        "attr": {
          "dtype": {
            "type": "DT_INT32"
          },
          "value": {
            "tensor": {
              "dtype": "DT_INT32",
              "tensorShape": {
                "dim": [
                  {
                    "size": "1"
                  }
                ]
              }
            }
          }
        }
      },
      {
        "name": "feature_fusion/mul_3/y",
        "op": "Const",
        "attr": {
          "value": {
            "tensor": {
              "dtype": "DT_INT32",
              "tensorShape": {}
            }
          },
          "dtype": {
            "type": "DT_INT32"
          }
        }
      },
      {
        "name": "resnet_v1_50/block1/unit_3/bottleneck_v1/Pad/paddings",
        "op": "Const",
        "attr": {
          "value": {
            "tensor": {
              "dtype": "DT_INT32",
              "tensorShape": {
                "dim": [
                  {
                    "size": "4"
                  },
                  {
                    "size": "2"
                  }
                ]
              }
            }
          },
          "dtype": {
            "type": "DT_INT32"
          }
        }
      },
      {
        "name": "feature_fusion/concat_1/axis",
        "op": "Const",
        "attr": {
          "value": {
            "tensor": {
              "dtype": "DT_INT32",
              "tensorShape": {}
            }
          },
          "dtype": {
            "type": "DT_INT32"
          }
        }
      },
      {
        "name": "feature_fusion/strided_slice_5/stack",
        "op": "Const",
        "attr": {
          "value": {
            "tensor": {
              "dtype": "DT_INT32",
              "tensorShape": {
                "dim": [
                  {
                    "size": "1"
                  }
                ]
              }
            }
          },
          "dtype": {
            "type": "DT_INT32"
          }
        }
      },
      {
        "name": "feature_fusion/strided_slice_5/stack_1",
        "op": "Const",
        "attr": {
          "value": {
            "tensor": {
              "dtype": "DT_INT32",
              "tensorShape": {
                "dim": [
                  {
                    "size": "1"
                  }
                ]
              }
            }
          },
          "dtype": {
            "type": "DT_INT32"
          }
        }
      },
      {
        "name": "feature_fusion/strided_slice_5/stack_2",
        "op": "Const",
        "attr": {
          "value": {
            "tensor": {
              "dtype": "DT_INT32",
              "tensorShape": {
                "dim": [
                  {
                    "size": "1"
                  }
                ]
              }
            }
          },
          "dtype": {
            "type": "DT_INT32"
          }
        }
      },
      {
        "name": "feature_fusion/mul_5/y",
        "op": "Const",
        "attr": {
          "dtype": {
            "type": "DT_INT32"
          },
          "value": {
            "tensor": {
              "dtype": "DT_INT32",
              "tensorShape": {}
            }
          }
        }
      },
      {
        "name": "resnet_v1_50/Pad/paddings",
        "op": "Const",
        "attr": {
          "value": {
            "tensor": {
              "dtype": "DT_INT32",
              "tensorShape": {
                "dim": [
                  {
                    "size": "4"
                  },
                  {
                    "size": "2"
                  }
                ]
              }
            }
          },
          "dtype": {
            "type": "DT_INT32"
          }
        }
      },
      {
        "name": "feature_fusion/concat_2/axis",
        "op": "Const",
        "attr": {
          "value": {
            "tensor": {
              "dtype": "DT_INT32",
              "tensorShape": {}
            }
          },
          "dtype": {
            "type": "DT_INT32"
          }
        }
      },
      {
        "name": "feature_fusion/Conv_9/weights",
        "op": "Const",
        "attr": {
          "dtype": {
            "type": "DT_FLOAT"
          },
          "value": {
            "tensor": {
              "dtype": "DT_FLOAT",
              "tensorShape": {
                "dim": [
                  {
                    "size": "1"
                  },
                  {
                    "size": "1"
                  },
                  {
                    "size": "32"
                  },
                  {
                    "size": "1"
                  }
                ]
              }
            }
          }
        }
      },
      {
        "name": "feature_fusion/Conv_9/biases",
        "op": "Const",
        "attr": {
          "dtype": {
            "type": "DT_FLOAT"
          },
          "value": {
            "tensor": {
              "dtype": "DT_FLOAT",
              "tensorShape": {
                "dim": [
                  {
                    "size": "1"
                  }
                ]
              }
            }
          }
        }
      },
      {
        "name": "feature_fusion/sub/y",
        "op": "Const",
        "attr": {
          "dtype": {
            "type": "DT_FLOAT"
          },
          "value": {
            "tensor": {
              "dtype": "DT_FLOAT",
              "tensorShape": {}
            }
          }
        }
      },
      {
        "name": "feature_fusion/mul_7/y",
        "op": "Const",
        "attr": {
          "dtype": {
            "type": "DT_FLOAT"
          },
          "value": {
            "tensor": {
              "dtype": "DT_FLOAT",
              "tensorShape": {}
            }
          }
        }
      },
      {
        "name": "feature_fusion/concat_3/axis",
        "op": "Const",
        "attr": {
          "value": {
            "tensor": {
              "dtype": "DT_INT32",
              "tensorShape": {}
            }
          },
          "dtype": {
            "type": "DT_INT32"
          }
        }
      },
      {
        "name": "input_images",
        "op": "Placeholder",
        "attr": {
          "dtype": {
            "type": "DT_FLOAT"
          },
          "shape": {
            "shape": {
              "dim": [
                {
                  "size": "-1"
                },
                {
                  "size": "-1"
                },
                {
                  "size": "-1"
                },
                {
                  "size": "3"
                }
              ]
            }
          }
        }
      },
      {
        "name": "resnet_v1_50/conv1/Conv2D_weights",
        "op": "Const",
        "attr": {
          "dtype": {
            "type": "DT_FLOAT"
          },
          "value": {
            "tensor": {
              "dtype": "DT_FLOAT",
              "tensorShape": {
                "dim": [
                  {
                    "size": "7"
                  },
                  {
                    "size": "7"
                  },
                  {
                    "size": "3"
                  },
                  {
                    "size": "64"
                  }
                ]
              }
            }
          }
        }
      },
      {
        "name": "resnet_v1_50/conv1/Conv2D_bn_offset",
        "op": "Const",
        "attr": {
          "value": {
            "tensor": {
              "dtype": "DT_FLOAT",
              "tensorShape": {
                "dim": [
                  {
                    "size": "64"
                  }
                ]
              }
            }
          },
          "dtype": {
            "type": "DT_FLOAT"
          }
        }
      },
      {
        "name": "resnet_v1_50/block4/unit_2/bottleneck_v1/conv2/Conv2D_weights",
        "op": "Const",
        "attr": {
          "value": {
            "tensor": {
              "dtype": "DT_FLOAT",
              "tensorShape": {
                "dim": [
                  {
                    "size": "3"
                  },
                  {
                    "size": "3"
                  },
                  {
                    "size": "512"
                  },
                  {
                    "size": "512"
                  }
                ]
              }
            }
          },
          "dtype": {
            "type": "DT_FLOAT"
          }
        }
      },
      {
        "name": "resnet_v1_50/block1/unit_1/bottleneck_v1/shortcut/Conv2D_weights",
        "op": "Const",
        "attr": {
          "value": {
            "tensor": {
              "dtype": "DT_FLOAT",
              "tensorShape": {
                "dim": [
                  {
                    "size": "1"
                  },
                  {
                    "size": "1"
                  },
                  {
                    "size": "64"
                  },
                  {
                    "size": "256"
                  }
                ]
              }
            }
          },
          "dtype": {
            "type": "DT_FLOAT"
          }
        }
      },
      {
        "name": "resnet_v1_50/block1/unit_1/bottleneck_v1/shortcut/Conv2D_bn_offset",
        "op": "Const",
        "attr": {
          "dtype": {
            "type": "DT_FLOAT"
          },
          "value": {
            "tensor": {
              "dtype": "DT_FLOAT",
              "tensorShape": {
                "dim": [
                  {
                    "size": "256"
                  }
                ]
              }
            }
          }
        }
      },
      {
        "name": "resnet_v1_50/block1/unit_1/bottleneck_v1/conv1/Conv2D_weights",
        "op": "Const",
        "attr": {
          "value": {
            "tensor": {
              "dtype": "DT_FLOAT",
              "tensorShape": {
                "dim": [
                  {
                    "size": "1"
                  },
                  {
                    "size": "1"
                  },
                  {
                    "size": "64"
                  },
                  {
                    "size": "64"
                  }
                ]
              }
            }
          },
          "dtype": {
            "type": "DT_FLOAT"
          }
        }
      },
      {
        "name": "resnet_v1_50/block4/unit_2/bottleneck_v1/conv2/Conv2D_bn_offset",
        "op": "Const",
        "attr": {
          "value": {
            "tensor": {
              "dtype": "DT_FLOAT",
              "tensorShape": {
                "dim": [
                  {
                    "size": "512"
                  }
                ]
              }
            }
          },
          "dtype": {
            "type": "DT_FLOAT"
          }
        }
      },
      {
        "name": "resnet_v1_50/block1/unit_1/bottleneck_v1/conv1/Conv2D_bn_offset",
        "op": "Const",
        "attr": {
          "value": {
            "tensor": {
              "dtype": "DT_FLOAT",
              "tensorShape": {
                "dim": [
                  {
                    "size": "64"
                  }
                ]
              }
            }
          },
          "dtype": {
            "type": "DT_FLOAT"
          }
        }
      },
      {
        "name": "resnet_v1_50/block1/unit_1/bottleneck_v1/conv2/Conv2D_weights",
        "op": "Const",
        "attr": {
          "value": {
            "tensor": {
              "dtype": "DT_FLOAT",
              "tensorShape": {
                "dim": [
                  {
                    "size": "3"
                  },
                  {
                    "size": "3"
                  },
                  {
                    "size": "64"
                  },
                  {
                    "size": "64"
                  }
                ]
              }
            }
          },
          "dtype": {
            "type": "DT_FLOAT"
          }
        }
      },
      {
        "name": "resnet_v1_50/block1/unit_1/bottleneck_v1/conv2/Conv2D_bn_offset",
        "op": "Const",
        "attr": {
          "dtype": {
            "type": "DT_FLOAT"
          },
          "value": {
            "tensor": {
              "dtype": "DT_FLOAT",
              "tensorShape": {
                "dim": [
                  {
                    "size": "64"
                  }
                ]
              }
            }
          }
        }
      },
      {
        "name": "resnet_v1_50/block4/unit_2/bottleneck_v1/conv3/Conv2D_weights",
        "op": "Const",
        "attr": {
          "dtype": {
            "type": "DT_FLOAT"
          },
          "value": {
            "tensor": {
              "dtype": "DT_FLOAT",
              "tensorShape": {
                "dim": [
                  {
                    "size": "1"
                  },
                  {
                    "size": "1"
                  },
                  {
                    "size": "512"
                  },
                  {
                    "size": "2048"
                  }
                ]
              }
            }
          }
        }
      },
      {
        "name": "resnet_v1_50/block1/unit_1/bottleneck_v1/conv3/Conv2D_weights",
        "op": "Const",
        "attr": {
          "value": {
            "tensor": {
              "dtype": "DT_FLOAT",
              "tensorShape": {
                "dim": [
                  {
                    "size": "1"
                  },
                  {
                    "size": "1"
                  },
                  {
                    "size": "64"
                  },
                  {
                    "size": "256"
                  }
                ]
              }
            }
          },
          "dtype": {
            "type": "DT_FLOAT"
          }
        }
      },
      {
        "name": "feature_fusion/Conv_5/Conv2D_weights",
        "op": "Const",
        "attr": {
          "dtype": {
            "type": "DT_FLOAT"
          },
          "value": {
            "tensor": {
              "dtype": "DT_FLOAT",
              "tensorShape": {
                "dim": [
                  {
                    "size": "3"
                  },
                  {
                    "size": "3"
                  },
                  {
                    "size": "32"
                  },
                  {
                    "size": "32"
                  }
                ]
              }
            }
          }
        }
      },
      {
        "name": "resnet_v1_50/block1/unit_1/bottleneck_v1/conv3/Conv2D_bn_offset",
        "op": "Const",
        "attr": {
          "value": {
            "tensor": {
              "dtype": "DT_FLOAT",
              "tensorShape": {
                "dim": [
                  {
                    "size": "256"
                  }
                ]
              }
            }
          },
          "dtype": {
            "type": "DT_FLOAT"
          }
        }
      },
      {
        "name": "resnet_v1_50/block1/unit_2/bottleneck_v1/conv1/Conv2D_weights",
        "op": "Const",
        "attr": {
          "value": {
            "tensor": {
              "dtype": "DT_FLOAT",
              "tensorShape": {
                "dim": [
                  {
                    "size": "1"
                  },
                  {
                    "size": "1"
                  },
                  {
                    "size": "256"
                  },
                  {
                    "size": "64"
                  }
                ]
              }
            }
          },
          "dtype": {
            "type": "DT_FLOAT"
          }
        }
      },
      {
        "name": "resnet_v1_50/block4/unit_2/bottleneck_v1/conv3/Conv2D_bn_offset",
        "op": "Const",
        "attr": {
          "dtype": {
            "type": "DT_FLOAT"
          },
          "value": {
            "tensor": {
              "dtype": "DT_FLOAT",
              "tensorShape": {
                "dim": [
                  {
                    "size": "2048"
                  }
                ]
              }
            }
          }
        }
      },
      {
        "name": "resnet_v1_50/block1/unit_2/bottleneck_v1/conv1/Conv2D_bn_offset",
        "op": "Const",
        "attr": {
          "value": {
            "tensor": {
              "dtype": "DT_FLOAT",
              "tensorShape": {
                "dim": [
                  {
                    "size": "64"
                  }
                ]
              }
            }
          },
          "dtype": {
            "type": "DT_FLOAT"
          }
        }
      },
      {
        "name": "resnet_v1_50/block1/unit_2/bottleneck_v1/conv2/Conv2D_weights",
        "op": "Const",
        "attr": {
          "value": {
            "tensor": {
              "dtype": "DT_FLOAT",
              "tensorShape": {
                "dim": [
                  {
                    "size": "3"
                  },
                  {
                    "size": "3"
                  },
                  {
                    "size": "64"
                  },
                  {
                    "size": "64"
                  }
                ]
              }
            }
          },
          "dtype": {
            "type": "DT_FLOAT"
          }
        }
      },
      {
        "name": "resnet_v1_50/block1/unit_2/bottleneck_v1/conv2/Conv2D_bn_offset",
        "op": "Const",
        "attr": {
          "dtype": {
            "type": "DT_FLOAT"
          },
          "value": {
            "tensor": {
              "dtype": "DT_FLOAT",
              "tensorShape": {
                "dim": [
                  {
                    "size": "64"
                  }
                ]
              }
            }
          }
        }
      },
      {
        "name": "resnet_v1_50/block1/unit_2/bottleneck_v1/conv3/Conv2D_weights",
        "op": "Const",
        "attr": {
          "dtype": {
            "type": "DT_FLOAT"
          },
          "value": {
            "tensor": {
              "dtype": "DT_FLOAT",
              "tensorShape": {
                "dim": [
                  {
                    "size": "1"
                  },
                  {
                    "size": "1"
                  },
                  {
                    "size": "64"
                  },
                  {
                    "size": "256"
                  }
                ]
              }
            }
          }
        }
      },
      {
        "name": "resnet_v1_50/block4/unit_3/bottleneck_v1/conv1/Conv2D_weights",
        "op": "Const",
        "attr": {
          "value": {
            "tensor": {
              "dtype": "DT_FLOAT",
              "tensorShape": {
                "dim": [
                  {
                    "size": "1"
                  },
                  {
                    "size": "1"
                  },
                  {
                    "size": "2048"
                  },
                  {
                    "size": "512"
                  }
                ]
              }
            }
          },
          "dtype": {
            "type": "DT_FLOAT"
          }
        }
      },
      {
        "name": "resnet_v1_50/block1/unit_2/bottleneck_v1/conv3/Conv2D_bn_offset",
        "op": "Const",
        "attr": {
          "value": {
            "tensor": {
              "dtype": "DT_FLOAT",
              "tensorShape": {
                "dim": [
                  {
                    "size": "256"
                  }
                ]
              }
            }
          },
          "dtype": {
            "type": "DT_FLOAT"
          }
        }
      },
      {
        "name": "resnet_v1_50/block1/unit_3/bottleneck_v1/conv1/Conv2D_weights",
        "op": "Const",
        "attr": {
          "value": {
            "tensor": {
              "dtype": "DT_FLOAT",
              "tensorShape": {
                "dim": [
                  {
                    "size": "1"
                  },
                  {
                    "size": "1"
                  },
                  {
                    "size": "256"
                  },
                  {
                    "size": "64"
                  }
                ]
              }
            }
          },
          "dtype": {
            "type": "DT_FLOAT"
          }
        }
      },
      {
        "name": "resnet_v1_50/block1/unit_3/bottleneck_v1/conv1/Conv2D_bn_offset",
        "op": "Const",
        "attr": {
          "dtype": {
            "type": "DT_FLOAT"
          },
          "value": {
            "tensor": {
              "dtype": "DT_FLOAT",
              "tensorShape": {
                "dim": [
                  {
                    "size": "64"
                  }
                ]
              }
            }
          }
        }
      },
      {
        "name": "resnet_v1_50/block4/unit_3/bottleneck_v1/conv1/Conv2D_bn_offset",
        "op": "Const",
        "attr": {
          "dtype": {
            "type": "DT_FLOAT"
          },
          "value": {
            "tensor": {
              "dtype": "DT_FLOAT",
              "tensorShape": {
                "dim": [
                  {
                    "size": "512"
                  }
                ]
              }
            }
          }
        }
      },
      {
        "name": "resnet_v1_50/block1/unit_3/bottleneck_v1/conv2/Conv2D_weights",
        "op": "Const",
        "attr": {
          "dtype": {
            "type": "DT_FLOAT"
          },
          "value": {
            "tensor": {
              "dtype": "DT_FLOAT",
              "tensorShape": {
                "dim": [
                  {
                    "size": "3"
                  },
                  {
                    "size": "3"
                  },
                  {
                    "size": "64"
                  },
                  {
                    "size": "64"
                  }
                ]
              }
            }
          }
        }
      },
      {
        "name": "feature_fusion/Conv_5/Conv2D_bn_offset",
        "op": "Const",
        "attr": {
          "dtype": {
            "type": "DT_FLOAT"
          },
          "value": {
            "tensor": {
              "dtype": "DT_FLOAT",
              "tensorShape": {
                "dim": [
                  {
                    "size": "32"
                  }
                ]
              }
            }
          }
        }
      },
      {
        "name": "resnet_v1_50/block1/unit_3/bottleneck_v1/conv2/Conv2D_bn_offset",
        "op": "Const",
        "attr": {
          "dtype": {
            "type": "DT_FLOAT"
          },
          "value": {
            "tensor": {
              "dtype": "DT_FLOAT",
              "tensorShape": {
                "dim": [
                  {
                    "size": "64"
                  }
                ]
              }
            }
          }
        }
      },
      {
        "name": "resnet_v1_50/block1/unit_3/bottleneck_v1/conv3/Conv2D_weights",
        "op": "Const",
        "attr": {
          "value": {
            "tensor": {
              "dtype": "DT_FLOAT",
              "tensorShape": {
                "dim": [
                  {
                    "size": "1"
                  },
                  {
                    "size": "1"
                  },
                  {
                    "size": "64"
                  },
                  {
                    "size": "256"
                  }
                ]
              }
            }
          },
          "dtype": {
            "type": "DT_FLOAT"
          }
        }
      },
      {
        "name": "resnet_v1_50/block4/unit_3/bottleneck_v1/conv2/Conv2D_weights",
        "op": "Const",
        "attr": {
          "dtype": {
            "type": "DT_FLOAT"
          },
          "value": {
            "tensor": {
              "dtype": "DT_FLOAT",
              "tensorShape": {
                "dim": [
                  {
                    "size": "3"
                  },
                  {
                    "size": "3"
                  },
                  {
                    "size": "512"
                  },
                  {
                    "size": "512"
                  }
                ]
              }
            }
          }
        }
      },
      {
        "name": "resnet_v1_50/block1/unit_3/bottleneck_v1/conv3/Conv2D_bn_offset",
        "op": "Const",
        "attr": {
          "value": {
            "tensor": {
              "dtype": "DT_FLOAT",
              "tensorShape": {
                "dim": [
                  {
                    "size": "256"
                  }
                ]
              }
            }
          },
          "dtype": {
            "type": "DT_FLOAT"
          }
        }
      },
      {
        "name": "resnet_v1_50/block2/unit_1/bottleneck_v1/shortcut/Conv2D_weights",
        "op": "Const",
        "attr": {
          "dtype": {
            "type": "DT_FLOAT"
          },
          "value": {
            "tensor": {
              "dtype": "DT_FLOAT",
              "tensorShape": {
                "dim": [
                  {
                    "size": "1"
                  },
                  {
                    "size": "1"
                  },
                  {
                    "size": "256"
                  },
                  {
                    "size": "512"
                  }
                ]
              }
            }
          }
        }
      },
      {
        "name": "resnet_v1_50/block2/unit_1/bottleneck_v1/shortcut/Conv2D_bn_offset",
        "op": "Const",
        "attr": {
          "dtype": {
            "type": "DT_FLOAT"
          },
          "value": {
            "tensor": {
              "dtype": "DT_FLOAT",
              "tensorShape": {
                "dim": [
                  {
                    "size": "512"
                  }
                ]
              }
            }
          }
        }
      },
      {
        "name": "resnet_v1_50/block2/unit_1/bottleneck_v1/conv1/Conv2D_weights",
        "op": "Const",
        "attr": {
          "value": {
            "tensor": {
              "dtype": "DT_FLOAT",
              "tensorShape": {
                "dim": [
                  {
                    "size": "1"
                  },
                  {
                    "size": "1"
                  },
                  {
                    "size": "256"
                  },
                  {
                    "size": "128"
                  }
                ]
              }
            }
          },
          "dtype": {
            "type": "DT_FLOAT"
          }
        }
      },
      {
        "name": "resnet_v1_50/block4/unit_3/bottleneck_v1/conv2/Conv2D_bn_offset",
        "op": "Const",
        "attr": {
          "dtype": {
            "type": "DT_FLOAT"
          },
          "value": {
            "tensor": {
              "dtype": "DT_FLOAT",
              "tensorShape": {
                "dim": [
                  {
                    "size": "512"
                  }
                ]
              }
            }
          }
        }
      },
      {
        "name": "resnet_v1_50/block2/unit_1/bottleneck_v1/conv1/Conv2D_bn_offset",
        "op": "Const",
        "attr": {
          "dtype": {
            "type": "DT_FLOAT"
          },
          "value": {
            "tensor": {
              "dtype": "DT_FLOAT",
              "tensorShape": {
                "dim": [
                  {
                    "size": "128"
                  }
                ]
              }
            }
          }
        }
      },
      {
        "name": "resnet_v1_50/block2/unit_1/bottleneck_v1/conv2/Conv2D_weights",
        "op": "Const",
        "attr": {
          "value": {
            "tensor": {
              "dtype": "DT_FLOAT",
              "tensorShape": {
                "dim": [
                  {
                    "size": "3"
                  },
                  {
                    "size": "3"
                  },
                  {
                    "size": "128"
                  },
                  {
                    "size": "128"
                  }
                ]
              }
            }
          },
          "dtype": {
            "type": "DT_FLOAT"
          }
        }
      },
      {
        "name": "resnet_v1_50/block2/unit_1/bottleneck_v1/conv2/Conv2D_bn_offset",
        "op": "Const",
        "attr": {
          "dtype": {
            "type": "DT_FLOAT"
          },
          "value": {
            "tensor": {
              "dtype": "DT_FLOAT",
              "tensorShape": {
                "dim": [
                  {
                    "size": "128"
                  }
                ]
              }
            }
          }
        }
      },
      {
        "name": "resnet_v1_50/block4/unit_3/bottleneck_v1/conv3/Conv2D_weights",
        "op": "Const",
        "attr": {
          "dtype": {
            "type": "DT_FLOAT"
          },
          "value": {
            "tensor": {
              "dtype": "DT_FLOAT",
              "tensorShape": {
                "dim": [
                  {
                    "size": "1"
                  },
                  {
                    "size": "1"
                  },
                  {
                    "size": "512"
                  },
                  {
                    "size": "2048"
                  }
                ]
              }
            }
          }
        }
      },
      {
        "name": "resnet_v1_50/block2/unit_1/bottleneck_v1/conv3/Conv2D_weights",
        "op": "Const",
        "attr": {
          "value": {
            "tensor": {
              "dtype": "DT_FLOAT",
              "tensorShape": {
                "dim": [
                  {
                    "size": "1"
                  },
                  {
                    "size": "1"
                  },
                  {
                    "size": "128"
                  },
                  {
                    "size": "512"
                  }
                ]
              }
            }
          },
          "dtype": {
            "type": "DT_FLOAT"
          }
        }
      },
      {
        "name": "feature_fusion/Conv_6/Conv2D_weights",
        "op": "Const",
        "attr": {
          "value": {
            "tensor": {
              "dtype": "DT_FLOAT",
              "tensorShape": {
                "dim": [
                  {
                    "size": "3"
                  },
                  {
                    "size": "3"
                  },
                  {
                    "size": "32"
                  },
                  {
                    "size": "32"
                  }
                ]
              }
            }
          },
          "dtype": {
            "type": "DT_FLOAT"
          }
        }
      },
      {
        "name": "resnet_v1_50/block2/unit_1/bottleneck_v1/conv3/Conv2D_bn_offset",
        "op": "Const",
        "attr": {
          "dtype": {
            "type": "DT_FLOAT"
          },
          "value": {
            "tensor": {
              "dtype": "DT_FLOAT",
              "tensorShape": {
                "dim": [
                  {
                    "size": "512"
                  }
                ]
              }
            }
          }
        }
      },
      {
        "name": "resnet_v1_50/block2/unit_2/bottleneck_v1/conv1/Conv2D_weights",
        "op": "Const",
        "attr": {
          "value": {
            "tensor": {
              "dtype": "DT_FLOAT",
              "tensorShape": {
                "dim": [
                  {
                    "size": "1"
                  },
                  {
                    "size": "1"
                  },
                  {
                    "size": "512"
                  },
                  {
                    "size": "128"
                  }
                ]
              }
            }
          },
          "dtype": {
            "type": "DT_FLOAT"
          }
        }
      },
      {
        "name": "resnet_v1_50/block4/unit_3/bottleneck_v1/conv3/Conv2D_bn_offset",
        "op": "Const",
        "attr": {
          "value": {
            "tensor": {
              "dtype": "DT_FLOAT",
              "tensorShape": {
                "dim": [
                  {
                    "size": "2048"
                  }
                ]
              }
            }
          },
          "dtype": {
            "type": "DT_FLOAT"
          }
        }
      },
      {
        "name": "resnet_v1_50/block2/unit_2/bottleneck_v1/conv1/Conv2D_bn_offset",
        "op": "Const",
        "attr": {
          "value": {
            "tensor": {
              "dtype": "DT_FLOAT",
              "tensorShape": {
                "dim": [
                  {
                    "size": "128"
                  }
                ]
              }
            }
          },
          "dtype": {
            "type": "DT_FLOAT"
          }
        }
      },
      {
        "name": "resnet_v1_50/block2/unit_2/bottleneck_v1/conv2/Conv2D_weights",
        "op": "Const",
        "attr": {
          "value": {
            "tensor": {
              "dtype": "DT_FLOAT",
              "tensorShape": {
                "dim": [
                  {
                    "size": "3"
                  },
                  {
                    "size": "3"
                  },
                  {
                    "size": "128"
                  },
                  {
                    "size": "128"
                  }
                ]
              }
            }
          },
          "dtype": {
            "type": "DT_FLOAT"
          }
        }
      },
      {
        "name": "resnet_v1_50/block2/unit_2/bottleneck_v1/conv2/Conv2D_bn_offset",
        "op": "Const",
        "attr": {
          "dtype": {
            "type": "DT_FLOAT"
          },
          "value": {
            "tensor": {
              "dtype": "DT_FLOAT",
              "tensorShape": {
                "dim": [
                  {
                    "size": "128"
                  }
                ]
              }
            }
          }
        }
      },
      {
        "name": "resnet_v1_50/block2/unit_2/bottleneck_v1/conv3/Conv2D_weights",
        "op": "Const",
        "attr": {
          "value": {
            "tensor": {
              "dtype": "DT_FLOAT",
              "tensorShape": {
                "dim": [
                  {
                    "size": "1"
                  },
                  {
                    "size": "1"
                  },
                  {
                    "size": "128"
                  },
                  {
                    "size": "512"
                  }
                ]
              }
            }
          },
          "dtype": {
            "type": "DT_FLOAT"
          }
        }
      },
      {
        "name": "resnet_v1_50/block2/unit_2/bottleneck_v1/conv3/Conv2D_bn_offset",
        "op": "Const",
        "attr": {
          "dtype": {
            "type": "DT_FLOAT"
          },
          "value": {
            "tensor": {
              "dtype": "DT_FLOAT",
              "tensorShape": {
                "dim": [
                  {
                    "size": "512"
                  }
                ]
              }
            }
          }
        }
      },
      {
        "name": "resnet_v1_50/block2/unit_3/bottleneck_v1/conv1/Conv2D_weights",
        "op": "Const",
        "attr": {
          "dtype": {
            "type": "DT_FLOAT"
          },
          "value": {
            "tensor": {
              "dtype": "DT_FLOAT",
              "tensorShape": {
                "dim": [
                  {
                    "size": "1"
                  },
                  {
                    "size": "1"
                  },
                  {
                    "size": "512"
                  },
                  {
                    "size": "128"
                  }
                ]
              }
            }
          }
        }
      },
      {
        "name": "resnet_v1_50/block2/unit_3/bottleneck_v1/conv1/Conv2D_bn_offset",
        "op": "Const",
        "attr": {
          "value": {
            "tensor": {
              "dtype": "DT_FLOAT",
              "tensorShape": {
                "dim": [
                  {
                    "size": "128"
                  }
                ]
              }
            }
          },
          "dtype": {
            "type": "DT_FLOAT"
          }
        }
      },
      {
        "name": "resnet_v1_50/block2/unit_3/bottleneck_v1/conv2/Conv2D_weights",
        "op": "Const",
        "attr": {
          "value": {
            "tensor": {
              "dtype": "DT_FLOAT",
              "tensorShape": {
                "dim": [
                  {
                    "size": "3"
                  },
                  {
                    "size": "3"
                  },
                  {
                    "size": "128"
                  },
                  {
                    "size": "128"
                  }
                ]
              }
            }
          },
          "dtype": {
            "type": "DT_FLOAT"
          }
        }
      },
      {
        "name": "resnet_v1_50/block2/unit_3/bottleneck_v1/conv2/Conv2D_bn_offset",
        "op": "Const",
        "attr": {
          "value": {
            "tensor": {
              "dtype": "DT_FLOAT",
              "tensorShape": {
                "dim": [
                  {
                    "size": "128"
                  }
                ]
              }
            }
          },
          "dtype": {
            "type": "DT_FLOAT"
          }
        }
      },
      {
        "name": "resnet_v1_50/block2/unit_3/bottleneck_v1/conv3/Conv2D_weights",
        "op": "Const",
        "attr": {
          "dtype": {
            "type": "DT_FLOAT"
          },
          "value": {
            "tensor": {
              "dtype": "DT_FLOAT",
              "tensorShape": {
                "dim": [
                  {
                    "size": "1"
                  },
                  {
                    "size": "1"
                  },
                  {
                    "size": "128"
                  },
                  {
                    "size": "512"
                  }
                ]
              }
            }
          }
        }
      },
      {
        "name": "resnet_v1_50/block2/unit_3/bottleneck_v1/conv3/Conv2D_bn_offset",
        "op": "Const",
        "attr": {
          "dtype": {
            "type": "DT_FLOAT"
          },
          "value": {
            "tensor": {
              "dtype": "DT_FLOAT",
              "tensorShape": {
                "dim": [
                  {
                    "size": "512"
                  }
                ]
              }
            }
          }
        }
      },
      {
        "name": "resnet_v1_50/block2/unit_4/bottleneck_v1/conv1/Conv2D_weights",
        "op": "Const",
        "attr": {
          "dtype": {
            "type": "DT_FLOAT"
          },
          "value": {
            "tensor": {
              "dtype": "DT_FLOAT",
              "tensorShape": {
                "dim": [
                  {
                    "size": "1"
                  },
                  {
                    "size": "1"
                  },
                  {
                    "size": "512"
                  },
                  {
                    "size": "128"
                  }
                ]
              }
            }
          }
        }
      },
      {
        "name": "resnet_v1_50/block2/unit_4/bottleneck_v1/conv1/Conv2D_bn_offset",
        "op": "Const",
        "attr": {
          "value": {
            "tensor": {
              "dtype": "DT_FLOAT",
              "tensorShape": {
                "dim": [
                  {
                    "size": "128"
                  }
                ]
              }
            }
          },
          "dtype": {
            "type": "DT_FLOAT"
          }
        }
      },
      {
        "name": "resnet_v1_50/block2/unit_4/bottleneck_v1/conv2/Conv2D_weights",
        "op": "Const",
        "attr": {
          "dtype": {
            "type": "DT_FLOAT"
          },
          "value": {
            "tensor": {
              "dtype": "DT_FLOAT",
              "tensorShape": {
                "dim": [
                  {
                    "size": "3"
                  },
                  {
                    "size": "3"
                  },
                  {
                    "size": "128"
                  },
                  {
                    "size": "128"
                  }
                ]
              }
            }
          }
        }
      },
      {
        "name": "resnet_v1_50/block2/unit_4/bottleneck_v1/conv2/Conv2D_bn_offset",
        "op": "Const",
        "attr": {
          "dtype": {
            "type": "DT_FLOAT"
          },
          "value": {
            "tensor": {
              "dtype": "DT_FLOAT",
              "tensorShape": {
                "dim": [
                  {
                    "size": "128"
                  }
                ]
              }
            }
          }
        }
      },
      {
        "name": "feature_fusion/Conv/Conv2D_weights",
        "op": "Const",
        "attr": {
          "value": {
            "tensor": {
              "dtype": "DT_FLOAT",
              "tensorShape": {
                "dim": [
                  {
                    "size": "1"
                  },
                  {
                    "size": "1"
                  },
                  {
                    "size": "2560"
                  },
                  {
                    "size": "128"
                  }
                ]
              }
            }
          },
          "dtype": {
            "type": "DT_FLOAT"
          }
        }
      },
      {
        "name": "resnet_v1_50/block2/unit_4/bottleneck_v1/conv3/Conv2D_weights",
        "op": "Const",
        "attr": {
          "dtype": {
            "type": "DT_FLOAT"
          },
          "value": {
            "tensor": {
              "dtype": "DT_FLOAT",
              "tensorShape": {
                "dim": [
                  {
                    "size": "1"
                  },
                  {
                    "size": "1"
                  },
                  {
                    "size": "128"
                  },
                  {
                    "size": "512"
                  }
                ]
              }
            }
          }
        }
      },
      {
        "name": "resnet_v1_50/block2/unit_4/bottleneck_v1/conv3/Conv2D_bn_offset",
        "op": "Const",
        "attr": {
          "value": {
            "tensor": {
              "dtype": "DT_FLOAT",
              "tensorShape": {
                "dim": [
                  {
                    "size": "512"
                  }
                ]
              }
            }
          },
          "dtype": {
            "type": "DT_FLOAT"
          }
        }
      },
      {
        "name": "resnet_v1_50/block3/unit_1/bottleneck_v1/shortcut/Conv2D_weights",
        "op": "Const",
        "attr": {
          "dtype": {
            "type": "DT_FLOAT"
          },
          "value": {
            "tensor": {
              "dtype": "DT_FLOAT",
              "tensorShape": {
                "dim": [
                  {
                    "size": "1"
                  },
                  {
                    "size": "1"
                  },
                  {
                    "size": "512"
                  },
                  {
                    "size": "1024"
                  }
                ]
              }
            }
          }
        }
      },
      {
        "name": "feature_fusion/Conv/Conv2D_bn_offset",
        "op": "Const",
        "attr": {
          "value": {
            "tensor": {
              "dtype": "DT_FLOAT",
              "tensorShape": {
                "dim": [
                  {
                    "size": "128"
                  }
                ]
              }
            }
          },
          "dtype": {
            "type": "DT_FLOAT"
          }
        }
      },
      {
        "name": "resnet_v1_50/block3/unit_1/bottleneck_v1/shortcut/Conv2D_bn_offset",
        "op": "Const",
        "attr": {
          "dtype": {
            "type": "DT_FLOAT"
          },
          "value": {
            "tensor": {
              "dtype": "DT_FLOAT",
              "tensorShape": {
                "dim": [
                  {
                    "size": "1024"
                  }
                ]
              }
            }
          }
        }
      },
      {
        "name": "resnet_v1_50/block3/unit_1/bottleneck_v1/conv1/Conv2D_weights",
        "op": "Const",
        "attr": {
          "value": {
            "tensor": {
              "dtype": "DT_FLOAT",
              "tensorShape": {
                "dim": [
                  {
                    "size": "1"
                  },
                  {
                    "size": "1"
                  },
                  {
                    "size": "512"
                  },
                  {
                    "size": "256"
                  }
                ]
              }
            }
          },
          "dtype": {
            "type": "DT_FLOAT"
          }
        }
      },
      {
        "name": "feature_fusion/Conv_6/Conv2D_bn_offset",
        "op": "Const",
        "attr": {
          "dtype": {
            "type": "DT_FLOAT"
          },
          "value": {
            "tensor": {
              "dtype": "DT_FLOAT",
              "tensorShape": {
                "dim": [
                  {
                    "size": "32"
                  }
                ]
              }
            }
          }
        }
      },
      {
        "name": "resnet_v1_50/block3/unit_1/bottleneck_v1/conv1/Conv2D_bn_offset",
        "op": "Const",
        "attr": {
          "value": {
            "tensor": {
              "dtype": "DT_FLOAT",
              "tensorShape": {
                "dim": [
                  {
                    "size": "256"
                  }
                ]
              }
            }
          },
          "dtype": {
            "type": "DT_FLOAT"
          }
        }
      },
      {
        "name": "resnet_v1_50/block3/unit_1/bottleneck_v1/conv2/Conv2D_weights",
        "op": "Const",
        "attr": {
          "value": {
            "tensor": {
              "dtype": "DT_FLOAT",
              "tensorShape": {
                "dim": [
                  {
                    "size": "3"
                  },
                  {
                    "size": "3"
                  },
                  {
                    "size": "256"
                  },
                  {
                    "size": "256"
                  }
                ]
              }
            }
          },
          "dtype": {
            "type": "DT_FLOAT"
          }
        }
      },
      {
        "name": "feature_fusion/Conv_1/Conv2D_weights",
        "op": "Const",
        "attr": {
          "value": {
            "tensor": {
              "dtype": "DT_FLOAT",
              "tensorShape": {
                "dim": [
                  {
                    "size": "3"
                  },
                  {
                    "size": "3"
                  },
                  {
                    "size": "128"
                  },
                  {
                    "size": "128"
                  }
                ]
              }
            }
          },
          "dtype": {
            "type": "DT_FLOAT"
          }
        }
      },
      {
        "name": "resnet_v1_50/block3/unit_1/bottleneck_v1/conv2/Conv2D_bn_offset",
        "op": "Const",
        "attr": {
          "dtype": {
            "type": "DT_FLOAT"
          },
          "value": {
            "tensor": {
              "dtype": "DT_FLOAT",
              "tensorShape": {
                "dim": [
                  {
                    "size": "256"
                  }
                ]
              }
            }
          }
        }
      },
      {
        "name": "resnet_v1_50/block3/unit_1/bottleneck_v1/conv3/Conv2D_weights",
        "op": "Const",
        "attr": {
          "dtype": {
            "type": "DT_FLOAT"
          },
          "value": {
            "tensor": {
              "dtype": "DT_FLOAT",
              "tensorShape": {
                "dim": [
                  {
                    "size": "1"
                  },
                  {
                    "size": "1"
                  },
                  {
                    "size": "256"
                  },
                  {
                    "size": "1024"
                  }
                ]
              }
            }
          }
        }
      },
      {
        "name": "feature_fusion/Conv_1/Conv2D_bn_offset",
        "op": "Const",
        "attr": {
          "dtype": {
            "type": "DT_FLOAT"
          },
          "value": {
            "tensor": {
              "dtype": "DT_FLOAT",
              "tensorShape": {
                "dim": [
                  {
                    "size": "128"
                  }
                ]
              }
            }
          }
        }
      },
      {
        "name": "resnet_v1_50/block3/unit_1/bottleneck_v1/conv3/Conv2D_bn_offset",
        "op": "Const",
        "attr": {
          "value": {
            "tensor": {
              "dtype": "DT_FLOAT",
              "tensorShape": {
                "dim": [
                  {
                    "size": "1024"
                  }
                ]
              }
            }
          },
          "dtype": {
            "type": "DT_FLOAT"
          }
        }
      },
      {
        "name": "resnet_v1_50/block3/unit_2/bottleneck_v1/conv1/Conv2D_weights",
        "op": "Const",
        "attr": {
          "value": {
            "tensor": {
              "dtype": "DT_FLOAT",
              "tensorShape": {
                "dim": [
                  {
                    "size": "1"
                  },
                  {
                    "size": "1"
                  },
                  {
                    "size": "1024"
                  },
                  {
                    "size": "256"
                  }
                ]
              }
            }
          },
          "dtype": {
            "type": "DT_FLOAT"
          }
        }
      },
      {
        "name": "resnet_v1_50/block3/unit_2/bottleneck_v1/conv1/Conv2D_bn_offset",
        "op": "Const",
        "attr": {
          "value": {
            "tensor": {
              "dtype": "DT_FLOAT",
              "tensorShape": {
                "dim": [
                  {
                    "size": "256"
                  }
                ]
              }
            }
          },
          "dtype": {
            "type": "DT_FLOAT"
          }
        }
      },
      {
        "name": "resnet_v1_50/block3/unit_2/bottleneck_v1/conv2/Conv2D_weights",
        "op": "Const",
        "attr": {
          "dtype": {
            "type": "DT_FLOAT"
          },
          "value": {
            "tensor": {
              "dtype": "DT_FLOAT",
              "tensorShape": {
                "dim": [
                  {
                    "size": "3"
                  },
                  {
                    "size": "3"
                  },
                  {
                    "size": "256"
                  },
                  {
                    "size": "256"
                  }
                ]
              }
            }
          }
        }
      },
      {
        "name": "resnet_v1_50/block3/unit_2/bottleneck_v1/conv2/Conv2D_bn_offset",
        "op": "Const",
        "attr": {
          "value": {
            "tensor": {
              "dtype": "DT_FLOAT",
              "tensorShape": {
                "dim": [
                  {
                    "size": "256"
                  }
                ]
              }
            }
          },
          "dtype": {
            "type": "DT_FLOAT"
          }
        }
      },
      {
        "name": "resnet_v1_50/block3/unit_2/bottleneck_v1/conv3/Conv2D_weights",
        "op": "Const",
        "attr": {
          "dtype": {
            "type": "DT_FLOAT"
          },
          "value": {
            "tensor": {
              "dtype": "DT_FLOAT",
              "tensorShape": {
                "dim": [
                  {
                    "size": "1"
                  },
                  {
                    "size": "1"
                  },
                  {
                    "size": "256"
                  },
                  {
                    "size": "1024"
                  }
                ]
              }
            }
          }
        }
      },
      {
        "name": "resnet_v1_50/block3/unit_2/bottleneck_v1/conv3/Conv2D_bn_offset",
        "op": "Const",
        "attr": {
          "dtype": {
            "type": "DT_FLOAT"
          },
          "value": {
            "tensor": {
              "dtype": "DT_FLOAT",
              "tensorShape": {
                "dim": [
                  {
                    "size": "1024"
                  }
                ]
              }
            }
          }
        }
      },
      {
        "name": "resnet_v1_50/block3/unit_3/bottleneck_v1/conv1/Conv2D_weights",
        "op": "Const",
        "attr": {
          "value": {
            "tensor": {
              "dtype": "DT_FLOAT",
              "tensorShape": {
                "dim": [
                  {
                    "size": "1"
                  },
                  {
                    "size": "1"
                  },
                  {
                    "size": "1024"
                  },
                  {
                    "size": "256"
                  }
                ]
              }
            }
          },
          "dtype": {
            "type": "DT_FLOAT"
          }
        }
      },
      {
        "name": "resnet_v1_50/block3/unit_3/bottleneck_v1/conv1/Conv2D_bn_offset",
        "op": "Const",
        "attr": {
          "value": {
            "tensor": {
              "dtype": "DT_FLOAT",
              "tensorShape": {
                "dim": [
                  {
                    "size": "256"
                  }
                ]
              }
            }
          },
          "dtype": {
            "type": "DT_FLOAT"
          }
        }
      },
      {
        "name": "resnet_v1_50/block3/unit_3/bottleneck_v1/conv2/Conv2D_weights",
        "op": "Const",
        "attr": {
          "value": {
            "tensor": {
              "dtype": "DT_FLOAT",
              "tensorShape": {
                "dim": [
                  {
                    "size": "3"
                  },
                  {
                    "size": "3"
                  },
                  {
                    "size": "256"
                  },
                  {
                    "size": "256"
                  }
                ]
              }
            }
          },
          "dtype": {
            "type": "DT_FLOAT"
          }
        }
      },
      {
        "name": "resnet_v1_50/block3/unit_3/bottleneck_v1/conv2/Conv2D_bn_offset",
        "op": "Const",
        "attr": {
          "dtype": {
            "type": "DT_FLOAT"
          },
          "value": {
            "tensor": {
              "dtype": "DT_FLOAT",
              "tensorShape": {
                "dim": [
                  {
                    "size": "256"
                  }
                ]
              }
            }
          }
        }
      },
      {
        "name": "resnet_v1_50/block3/unit_3/bottleneck_v1/conv3/Conv2D_weights",
        "op": "Const",
        "attr": {
          "value": {
            "tensor": {
              "dtype": "DT_FLOAT",
              "tensorShape": {
                "dim": [
                  {
                    "size": "1"
                  },
                  {
                    "size": "1"
                  },
                  {
                    "size": "256"
                  },
                  {
                    "size": "1024"
                  }
                ]
              }
            }
          },
          "dtype": {
            "type": "DT_FLOAT"
          }
        }
      },
      {
        "name": "resnet_v1_50/block3/unit_3/bottleneck_v1/conv3/Conv2D_bn_offset",
        "op": "Const",
        "attr": {
          "dtype": {
            "type": "DT_FLOAT"
          },
          "value": {
            "tensor": {
              "dtype": "DT_FLOAT",
              "tensorShape": {
                "dim": [
                  {
                    "size": "1024"
                  }
                ]
              }
            }
          }
        }
      },
      {
        "name": "resnet_v1_50/block3/unit_4/bottleneck_v1/conv1/Conv2D_weights",
        "op": "Const",
        "attr": {
          "value": {
            "tensor": {
              "dtype": "DT_FLOAT",
              "tensorShape": {
                "dim": [
                  {
                    "size": "1"
                  },
                  {
                    "size": "1"
                  },
                  {
                    "size": "1024"
                  },
                  {
                    "size": "256"
                  }
                ]
              }
            }
          },
          "dtype": {
            "type": "DT_FLOAT"
          }
        }
      },
      {
        "name": "resnet_v1_50/block3/unit_4/bottleneck_v1/conv1/Conv2D_bn_offset",
        "op": "Const",
        "attr": {
          "dtype": {
            "type": "DT_FLOAT"
          },
          "value": {
            "tensor": {
              "dtype": "DT_FLOAT",
              "tensorShape": {
                "dim": [
                  {
                    "size": "256"
                  }
                ]
              }
            }
          }
        }
      },
      {
        "name": "feature_fusion/Conv_2/Conv2D_weights",
        "op": "Const",
        "attr": {
          "value": {
            "tensor": {
              "dtype": "DT_FLOAT",
              "tensorShape": {
                "dim": [
                  {
                    "size": "1"
                  },
                  {
                    "size": "1"
                  },
                  {
                    "size": "384"
                  },
                  {
                    "size": "64"
                  }
                ]
              }
            }
          },
          "dtype": {
            "type": "DT_FLOAT"
          }
        }
      },
      {
        "name": "resnet_v1_50/block3/unit_4/bottleneck_v1/conv2/Conv2D_weights",
        "op": "Const",
        "attr": {
          "dtype": {
            "type": "DT_FLOAT"
          },
          "value": {
            "tensor": {
              "dtype": "DT_FLOAT",
              "tensorShape": {
                "dim": [
                  {
                    "size": "3"
                  },
                  {
                    "size": "3"
                  },
                  {
                    "size": "256"
                  },
                  {
                    "size": "256"
                  }
                ]
              }
            }
          }
        }
      },
      {
        "name": "resnet_v1_50/block3/unit_4/bottleneck_v1/conv2/Conv2D_bn_offset",
        "op": "Const",
        "attr": {
          "dtype": {
            "type": "DT_FLOAT"
          },
          "value": {
            "tensor": {
              "dtype": "DT_FLOAT",
              "tensorShape": {
                "dim": [
                  {
                    "size": "256"
                  }
                ]
              }
            }
          }
        }
      },
      {
        "name": "feature_fusion/Conv_2/Conv2D_bn_offset",
        "op": "Const",
        "attr": {
          "value": {
            "tensor": {
              "dtype": "DT_FLOAT",
              "tensorShape": {
                "dim": [
                  {
                    "size": "64"
                  }
                ]
              }
            }
          },
          "dtype": {
            "type": "DT_FLOAT"
          }
        }
      },
      {
        "name": "resnet_v1_50/block3/unit_4/bottleneck_v1/conv3/Conv2D_weights",
        "op": "Const",
        "attr": {
          "dtype": {
            "type": "DT_FLOAT"
          },
          "value": {
            "tensor": {
              "dtype": "DT_FLOAT",
              "tensorShape": {
                "dim": [
                  {
                    "size": "1"
                  },
                  {
                    "size": "1"
                  },
                  {
                    "size": "256"
                  },
                  {
                    "size": "1024"
                  }
                ]
              }
            }
          }
        }
      },
      {
        "name": "resnet_v1_50/block3/unit_4/bottleneck_v1/conv3/Conv2D_bn_offset",
        "op": "Const",
        "attr": {
          "value": {
            "tensor": {
              "dtype": "DT_FLOAT",
              "tensorShape": {
                "dim": [
                  {
                    "size": "1024"
                  }
                ]
              }
            }
          },
          "dtype": {
            "type": "DT_FLOAT"
          }
        }
      },
      {
        "name": "resnet_v1_50/block3/unit_5/bottleneck_v1/conv1/Conv2D_weights",
        "op": "Const",
        "attr": {
          "dtype": {
            "type": "DT_FLOAT"
          },
          "value": {
            "tensor": {
              "dtype": "DT_FLOAT",
              "tensorShape": {
                "dim": [
                  {
                    "size": "1"
                  },
                  {
                    "size": "1"
                  },
                  {
                    "size": "1024"
                  },
                  {
                    "size": "256"
                  }
                ]
              }
            }
          }
        }
      },
      {
        "name": "resnet_v1_50/block3/unit_5/bottleneck_v1/conv1/Conv2D_bn_offset",
        "op": "Const",
        "attr": {
          "dtype": {
            "type": "DT_FLOAT"
          },
          "value": {
            "tensor": {
              "dtype": "DT_FLOAT",
              "tensorShape": {
                "dim": [
                  {
                    "size": "256"
                  }
                ]
              }
            }
          }
        }
      },
      {
        "name": "feature_fusion/Conv_3/Conv2D_weights",
        "op": "Const",
        "attr": {
          "dtype": {
            "type": "DT_FLOAT"
          },
          "value": {
            "tensor": {
              "dtype": "DT_FLOAT",
              "tensorShape": {
                "dim": [
                  {
                    "size": "3"
                  },
                  {
                    "size": "3"
                  },
                  {
                    "size": "64"
                  },
                  {
                    "size": "64"
                  }
                ]
              }
            }
          }
        }
      },
      {
        "name": "resnet_v1_50/block3/unit_5/bottleneck_v1/conv2/Conv2D_weights",
        "op": "Const",
        "attr": {
          "value": {
            "tensor": {
              "dtype": "DT_FLOAT",
              "tensorShape": {
                "dim": [
                  {
                    "size": "3"
                  },
                  {
                    "size": "3"
                  },
                  {
                    "size": "256"
                  },
                  {
                    "size": "256"
                  }
                ]
              }
            }
          },
          "dtype": {
            "type": "DT_FLOAT"
          }
        }
      },
      {
        "name": "resnet_v1_50/block3/unit_5/bottleneck_v1/conv2/Conv2D_bn_offset",
        "op": "Const",
        "attr": {
          "value": {
            "tensor": {
              "dtype": "DT_FLOAT",
              "tensorShape": {
                "dim": [
                  {
                    "size": "256"
                  }
                ]
              }
            }
          },
          "dtype": {
            "type": "DT_FLOAT"
          }
        }
      },
      {
        "name": "feature_fusion/Conv_3/Conv2D_bn_offset",
        "op": "Const",
        "attr": {
          "value": {
            "tensor": {
              "dtype": "DT_FLOAT",
              "tensorShape": {
                "dim": [
                  {
                    "size": "64"
                  }
                ]
              }
            }
          },
          "dtype": {
            "type": "DT_FLOAT"
          }
        }
      },
      {
        "name": "resnet_v1_50/block3/unit_5/bottleneck_v1/conv3/Conv2D_weights",
        "op": "Const",
        "attr": {
          "value": {
            "tensor": {
              "dtype": "DT_FLOAT",
              "tensorShape": {
                "dim": [
                  {
                    "size": "1"
                  },
                  {
                    "size": "1"
                  },
                  {
                    "size": "256"
                  },
                  {
                    "size": "1024"
                  }
                ]
              }
            }
          },
          "dtype": {
            "type": "DT_FLOAT"
          }
        }
      },
      {
        "name": "resnet_v1_50/block3/unit_5/bottleneck_v1/conv3/Conv2D_bn_offset",
        "op": "Const",
        "attr": {
          "value": {
            "tensor": {
              "dtype": "DT_FLOAT",
              "tensorShape": {
                "dim": [
                  {
                    "size": "1024"
                  }
                ]
              }
            }
          },
          "dtype": {
            "type": "DT_FLOAT"
          }
        }
      },
      {
        "name": "resnet_v1_50/block3/unit_6/bottleneck_v1/conv1/Conv2D_weights",
        "op": "Const",
        "attr": {
          "dtype": {
            "type": "DT_FLOAT"
          },
          "value": {
            "tensor": {
              "dtype": "DT_FLOAT",
              "tensorShape": {
                "dim": [
                  {
                    "size": "1"
                  },
                  {
                    "size": "1"
                  },
                  {
                    "size": "1024"
                  },
                  {
                    "size": "256"
                  }
                ]
              }
            }
          }
        }
      },
      {
        "name": "resnet_v1_50/block3/unit_6/bottleneck_v1/conv1/Conv2D_bn_offset",
        "op": "Const",
        "attr": {
          "dtype": {
            "type": "DT_FLOAT"
          },
          "value": {
            "tensor": {
              "dtype": "DT_FLOAT",
              "tensorShape": {
                "dim": [
                  {
                    "size": "256"
                  }
                ]
              }
            }
          }
        }
      },
      {
        "name": "resnet_v1_50/block3/unit_6/bottleneck_v1/conv2/Conv2D_weights",
        "op": "Const",
        "attr": {
          "value": {
            "tensor": {
              "dtype": "DT_FLOAT",
              "tensorShape": {
                "dim": [
                  {
                    "size": "3"
                  },
                  {
                    "size": "3"
                  },
                  {
                    "size": "256"
                  },
                  {
                    "size": "256"
                  }
                ]
              }
            }
          },
          "dtype": {
            "type": "DT_FLOAT"
          }
        }
      },
      {
        "name": "resnet_v1_50/block3/unit_6/bottleneck_v1/conv2/Conv2D_bn_offset",
        "op": "Const",
        "attr": {
          "value": {
            "tensor": {
              "dtype": "DT_FLOAT",
              "tensorShape": {
                "dim": [
                  {
                    "size": "256"
                  }
                ]
              }
            }
          },
          "dtype": {
            "type": "DT_FLOAT"
          }
        }
      },
      {
        "name": "resnet_v1_50/block3/unit_6/bottleneck_v1/conv3/Conv2D_weights",
        "op": "Const",
        "attr": {
          "value": {
            "tensor": {
              "dtype": "DT_FLOAT",
              "tensorShape": {
                "dim": [
                  {
                    "size": "1"
                  },
                  {
                    "size": "1"
                  },
                  {
                    "size": "256"
                  },
                  {
                    "size": "1024"
                  }
                ]
              }
            }
          },
          "dtype": {
            "type": "DT_FLOAT"
          }
        }
      },
      {
        "name": "resnet_v1_50/block3/unit_6/bottleneck_v1/conv3/Conv2D_bn_offset",
        "op": "Const",
        "attr": {
          "value": {
            "tensor": {
              "dtype": "DT_FLOAT",
              "tensorShape": {
                "dim": [
                  {
                    "size": "1024"
                  }
                ]
              }
            }
          },
          "dtype": {
            "type": "DT_FLOAT"
          }
        }
      },
      {
        "name": "resnet_v1_50/block4/unit_1/bottleneck_v1/shortcut/Conv2D_weights",
        "op": "Const",
        "attr": {
          "dtype": {
            "type": "DT_FLOAT"
          },
          "value": {
            "tensor": {
              "dtype": "DT_FLOAT",
              "tensorShape": {
                "dim": [
                  {
                    "size": "1"
                  },
                  {
                    "size": "1"
                  },
                  {
                    "size": "1024"
                  },
                  {
                    "size": "2048"
                  }
                ]
              }
            }
          }
        }
      },
      {
        "name": "resnet_v1_50/block4/unit_1/bottleneck_v1/shortcut/Conv2D_bn_offset",
        "op": "Const",
        "attr": {
          "value": {
            "tensor": {
              "dtype": "DT_FLOAT",
              "tensorShape": {
                "dim": [
                  {
                    "size": "2048"
                  }
                ]
              }
            }
          },
          "dtype": {
            "type": "DT_FLOAT"
          }
        }
      },
      {
        "name": "resnet_v1_50/block4/unit_1/bottleneck_v1/conv1/Conv2D_weights",
        "op": "Const",
        "attr": {
          "dtype": {
            "type": "DT_FLOAT"
          },
          "value": {
            "tensor": {
              "dtype": "DT_FLOAT",
              "tensorShape": {
                "dim": [
                  {
                    "size": "1"
                  },
                  {
                    "size": "1"
                  },
                  {
                    "size": "1024"
                  },
                  {
                    "size": "512"
                  }
                ]
              }
            }
          }
        }
      },
      {
        "name": "resnet_v1_50/block4/unit_1/bottleneck_v1/conv1/Conv2D_bn_offset",
        "op": "Const",
        "attr": {
          "value": {
            "tensor": {
              "dtype": "DT_FLOAT",
              "tensorShape": {
                "dim": [
                  {
                    "size": "512"
                  }
                ]
              }
            }
          },
          "dtype": {
            "type": "DT_FLOAT"
          }
        }
      },
      {
        "name": "resnet_v1_50/block4/unit_1/bottleneck_v1/conv2/Conv2D_weights",
        "op": "Const",
        "attr": {
          "dtype": {
            "type": "DT_FLOAT"
          },
          "value": {
            "tensor": {
              "dtype": "DT_FLOAT",
              "tensorShape": {
                "dim": [
                  {
                    "size": "3"
                  },
                  {
                    "size": "3"
                  },
                  {
                    "size": "512"
                  },
                  {
                    "size": "512"
                  }
                ]
              }
            }
          }
        }
      },
      {
        "name": "resnet_v1_50/block4/unit_1/bottleneck_v1/conv2/Conv2D_bn_offset",
        "op": "Const",
        "attr": {
          "value": {
            "tensor": {
              "dtype": "DT_FLOAT",
              "tensorShape": {
                "dim": [
                  {
                    "size": "512"
                  }
                ]
              }
            }
          },
          "dtype": {
            "type": "DT_FLOAT"
          }
        }
      },
      {
        "name": "resnet_v1_50/block4/unit_1/bottleneck_v1/conv3/Conv2D_weights",
        "op": "Const",
        "attr": {
          "dtype": {
            "type": "DT_FLOAT"
          },
          "value": {
            "tensor": {
              "dtype": "DT_FLOAT",
              "tensorShape": {
                "dim": [
                  {
                    "size": "1"
                  },
                  {
                    "size": "1"
                  },
                  {
                    "size": "512"
                  },
                  {
                    "size": "2048"
                  }
                ]
              }
            }
          }
        }
      },
      {
        "name": "feature_fusion/Conv_4/Conv2D_weights",
        "op": "Const",
        "attr": {
          "value": {
            "tensor": {
              "dtype": "DT_FLOAT",
              "tensorShape": {
                "dim": [
                  {
                    "size": "1"
                  },
                  {
                    "size": "1"
                  },
                  {
                    "size": "128"
                  },
                  {
                    "size": "32"
                  }
                ]
              }
            }
          },
          "dtype": {
            "type": "DT_FLOAT"
          }
        }
      },
      {
        "name": "resnet_v1_50/block4/unit_1/bottleneck_v1/conv3/Conv2D_bn_offset",
        "op": "Const",
        "attr": {
          "dtype": {
            "type": "DT_FLOAT"
          },
          "value": {
            "tensor": {
              "dtype": "DT_FLOAT",
              "tensorShape": {
                "dim": [
                  {
                    "size": "2048"
                  }
                ]
              }
            }
          }
        }
      },
      {
        "name": "resnet_v1_50/block4/unit_2/bottleneck_v1/conv1/Conv2D_weights",
        "op": "Const",
        "attr": {
          "value": {
            "tensor": {
              "dtype": "DT_FLOAT",
              "tensorShape": {
                "dim": [
                  {
                    "size": "1"
                  },
                  {
                    "size": "1"
                  },
                  {
                    "size": "2048"
                  },
                  {
                    "size": "512"
                  }
                ]
              }
            }
          },
          "dtype": {
            "type": "DT_FLOAT"
          }
        }
      },
      {
        "name": "resnet_v1_50/block4/unit_2/bottleneck_v1/conv1/Conv2D_bn_offset",
        "op": "Const",
        "attr": {
          "value": {
            "tensor": {
              "dtype": "DT_FLOAT",
              "tensorShape": {
                "dim": [
                  {
                    "size": "512"
                  }
                ]
              }
            }
          },
          "dtype": {
            "type": "DT_FLOAT"
          }
        }
      },
      {
        "name": "feature_fusion/Conv_4/Conv2D_bn_offset",
        "op": "Const",
        "attr": {
          "dtype": {
            "type": "DT_FLOAT"
          },
          "value": {
            "tensor": {
              "dtype": "DT_FLOAT",
              "tensorShape": {
                "dim": [
                  {
                    "size": "32"
                  }
                ]
              }
            }
          }
        }
      },
      {
        "name": "resnet_v1_50/Pad",
        "op": "Pad",
        "input": [
          "input_images",
          "resnet_v1_50/Pad/paddings"
        ],
        "attr": {
          "T": {
            "type": "DT_FLOAT"
          },
          "Tpaddings": {
            "type": "DT_INT32"
          }
        }
      },
      {
        "name": "resnet_v1_50/conv1/Relu",
        "op": "_FusedConv2D",
        "input": [
          "resnet_v1_50/Pad",
          "resnet_v1_50/conv1/Conv2D_weights",
          "resnet_v1_50/conv1/Conv2D_bn_offset"
        ],
        "device": "/device:CPU:0",
        "attr": {
          "num_args": {
            "i": "1"
          },
          "epsilon": {
            "f": 0.0
          },
          "num_host_args": {
            "i": "0"
          },
          "data_format": {
            "s": "TkhXQw=="
          },
          "fused_ops": {
            "list": {
              "s": [
                "Qmlhc0FkZA==",
                "UmVsdQ=="
              ]
            }
          },
          "filter_format": {
            "s": "SFdJTw=="
          },
          "TArgs": {
            "list": {
              "type": [
                "DT_FLOAT"
              ]
            }
          },
          "padding": {
            "s": "VkFMSUQ="
          },
          "dilations": {
            "list": {
              "i": [
                "1",
                "1",
                "1",
                "1"
              ]
            }
          },
          "T": {
            "type": "DT_FLOAT"
          },
          "explicit_paddings": {
            "list": {}
          },
          "leakyrelu_alpha": {
            "f": 0.2
          },
          "use_cudnn_on_gpu": {
            "b": true
          },
          "strides": {
            "list": {
              "i": [
                "1",
                "2",
                "2",
                "1"
              ]
            }
          }
        }
      },
      {
        "name": "resnet_v1_50/pool1/MaxPool",
        "op": "MaxPool",
        "input": [
          "resnet_v1_50/conv1/Relu"
        ],
        "attr": {
          "data_format": {
            "s": "TkhXQw=="
          },
          "ksize": {
            "list": {
              "i": [
                "1",
                "3",
                "3",
                "1"
              ]
            }
          },
          "explicit_paddings": {
            "list": {}
          },
          "T": {
            "type": "DT_FLOAT"
          },
          "padding": {
            "s": "U0FNRQ=="
          },
          "strides": {
            "list": {
              "i": [
                "1",
                "2",
                "2",
                "1"
              ]
            }
          }
        }
      },
      {
        "name": "resnet_v1_50/block1/unit_1/bottleneck_v1/shortcut/BatchNorm/FusedBatchNorm",
        "op": "_FusedConv2D",
        "input": [
          "resnet_v1_50/pool1/MaxPool",
          "resnet_v1_50/block1/unit_1/bottleneck_v1/shortcut/Conv2D_weights",
          "resnet_v1_50/block1/unit_1/bottleneck_v1/shortcut/Conv2D_bn_offset"
        ],
        "device": "/device:CPU:0",
        "attr": {
          "leakyrelu_alpha": {
            "f": 0.2
          },
          "use_cudnn_on_gpu": {
            "b": true
          },
          "padding": {
            "s": "U0FNRQ=="
          },
          "data_format": {
            "s": "TkhXQw=="
          },
          "num_host_args": {
            "i": "0"
          },
          "dilations": {
            "list": {
              "i": [
                "1",
                "1",
                "1",
                "1"
              ]
            }
          },
          "num_args": {
            "i": "1"
          },
          "TArgs": {
            "list": {
              "type": [
                "DT_FLOAT"
              ]
            }
          },
          "T": {
            "type": "DT_FLOAT"
          },
          "epsilon": {
            "f": 0.0
          },
          "strides": {
            "list": {
              "i": [
                "1",
                "1",
                "1",
                "1"
              ]
            }
          },
          "filter_format": {
            "s": "SFdJTw=="
          },
          "fused_ops": {
            "list": {
              "s": [
                "Qmlhc0FkZA=="
              ]
            }
          },
          "explicit_paddings": {
            "list": {}
          }
        }
      },
      {
        "name": "resnet_v1_50/block1/unit_1/bottleneck_v1/conv1/Relu",
        "op": "_FusedConv2D",
        "input": [
          "resnet_v1_50/pool1/MaxPool",
          "resnet_v1_50/block1/unit_1/bottleneck_v1/conv1/Conv2D_weights",
          "resnet_v1_50/block1/unit_1/bottleneck_v1/conv1/Conv2D_bn_offset"
        ],
        "device": "/device:CPU:0",
        "attr": {
          "num_args": {
            "i": "1"
          },
          "data_format": {
            "s": "TkhXQw=="
          },
          "num_host_args": {
            "i": "0"
          },
          "strides": {
            "list": {
              "i": [
                "1",
                "1",
                "1",
                "1"
              ]
            }
          },
          "explicit_paddings": {
            "list": {}
          },
          "filter_format": {
            "s": "SFdJTw=="
          },
          "fused_ops": {
            "list": {
              "s": [
                "Qmlhc0FkZA==",
                "UmVsdQ=="
              ]
            }
          },
          "padding": {
            "s": "U0FNRQ=="
          },
          "dilations": {
            "list": {
              "i": [
                "1",
                "1",
                "1",
                "1"
              ]
            }
          },
          "leakyrelu_alpha": {
            "f": 0.2
          },
          "use_cudnn_on_gpu": {
            "b": true
          },
          "T": {
            "type": "DT_FLOAT"
          },
          "epsilon": {
            "f": 0.0
          },
          "TArgs": {
            "list": {
              "type": [
                "DT_FLOAT"
              ]
            }
          }
        }
      },
      {
        "name": "resnet_v1_50/block1/unit_1/bottleneck_v1/conv2/Relu",
        "op": "_FusedConv2D",
        "input": [
          "resnet_v1_50/block1/unit_1/bottleneck_v1/conv1/Relu",
          "resnet_v1_50/block1/unit_1/bottleneck_v1/conv2/Conv2D_weights",
          "resnet_v1_50/block1/unit_1/bottleneck_v1/conv2/Conv2D_bn_offset"
        ],
        "device": "/device:CPU:0",
        "attr": {
          "data_format": {
            "s": "TkhXQw=="
          },
          "use_cudnn_on_gpu": {
            "b": true
          },
          "T": {
            "type": "DT_FLOAT"
          },
          "leakyrelu_alpha": {
            "f": 0.2
          },
          "fused_ops": {
            "list": {
              "s": [
                "Qmlhc0FkZA==",
                "UmVsdQ=="
              ]
            }
          },
          "filter_format": {
            "s": "SFdJTw=="
          },
          "explicit_paddings": {
            "list": {}
          },
          "TArgs": {
            "list": {
              "type": [
                "DT_FLOAT"
              ]
            }
          },
          "dilations": {
            "list": {
              "i": [
                "1",
                "1",
                "1",
                "1"
              ]
            }
          },
          "num_args": {
            "i": "1"
          },
          "padding": {
            "s": "U0FNRQ=="
          },
          "epsilon": {
            "f": 0.0
          },
          "num_host_args": {
            "i": "0"
          },
          "strides": {
            "list": {
              "i": [
                "1",
                "1",
                "1",
                "1"
              ]
            }
          }
        }
      },
      {
        "name": "resnet_v1_50/block1/unit_1/bottleneck_v1/conv3/BatchNorm/FusedBatchNorm",
        "op": "_FusedConv2D",
        "input": [
          "resnet_v1_50/block1/unit_1/bottleneck_v1/conv2/Relu",
          "resnet_v1_50/block1/unit_1/bottleneck_v1/conv3/Conv2D_weights",
          "resnet_v1_50/block1/unit_1/bottleneck_v1/conv3/Conv2D_bn_offset"
        ],
        "device": "/device:CPU:0",
        "attr": {
          "data_format": {
            "s": "TkhXQw=="
          },
          "fused_ops": {
            "list": {
              "s": [
                "Qmlhc0FkZA=="
              ]
            }
          },
          "TArgs": {
            "list": {
              "type": [
                "DT_FLOAT"
              ]
            }
          },
          "explicit_paddings": {
            "list": {}
          },
          "num_host_args": {
            "i": "0"
          },
          "use_cudnn_on_gpu": {
            "b": true
          },
          "num_args": {
            "i": "1"
          },
          "strides": {
            "list": {
              "i": [
                "1",
                "1",
                "1",
                "1"
              ]
            }
          },
          "leakyrelu_alpha": {
            "f": 0.2
          },
          "dilations": {
            "list": {
              "i": [
                "1",
                "1",
                "1",
                "1"
              ]
            }
          },
          "epsilon": {
            "f": 0.0
          },
          "T": {
            "type": "DT_FLOAT"
          },
          "padding": {
            "s": "U0FNRQ=="
          },
          "filter_format": {
            "s": "SFdJTw=="
          }
        }
      },
      {
        "name": "resnet_v1_50/block1/unit_1/bottleneck_v1/add",
        "op": "Add",
        "input": [
          "resnet_v1_50/block1/unit_1/bottleneck_v1/shortcut/BatchNorm/FusedBatchNorm",
          "resnet_v1_50/block1/unit_1/bottleneck_v1/conv3/BatchNorm/FusedBatchNorm"
        ],
        "attr": {
          "T": {
            "type": "DT_FLOAT"
          }
        }
      },
      {
        "name": "resnet_v1_50/block1/unit_1/bottleneck_v1/Relu",
        "op": "Relu",
        "input": [
          "resnet_v1_50/block1/unit_1/bottleneck_v1/add"
        ],
        "attr": {
          "T": {
            "type": "DT_FLOAT"
          }
        }
      },
      {
        "name": "resnet_v1_50/block1/unit_2/bottleneck_v1/conv1/Relu",
        "op": "_FusedConv2D",
        "input": [
          "resnet_v1_50/block1/unit_1/bottleneck_v1/Relu",
          "resnet_v1_50/block1/unit_2/bottleneck_v1/conv1/Conv2D_weights",
          "resnet_v1_50/block1/unit_2/bottleneck_v1/conv1/Conv2D_bn_offset"
        ],
        "device": "/device:CPU:0",
        "attr": {
          "leakyrelu_alpha": {
            "f": 0.2
          },
          "explicit_paddings": {
            "list": {}
          },
          "TArgs": {
            "list": {
              "type": [
                "DT_FLOAT"
              ]
            }
          },
          "data_format": {
            "s": "TkhXQw=="
          },
          "fused_ops": {
            "list": {
              "s": [
                "Qmlhc0FkZA==",
                "UmVsdQ=="
              ]
            }
          },
          "num_args": {
            "i": "1"
          },
          "epsilon": {
            "f": 0.0
          },
          "padding": {
            "s": "U0FNRQ=="
          },
          "T": {
            "type": "DT_FLOAT"
          },
          "dilations": {
            "list": {
              "i": [
                "1",
                "1",
                "1",
                "1"
              ]
            }
          },
          "strides": {
            "list": {
              "i": [
                "1",
                "1",
                "1",
                "1"
              ]
            }
          },
          "use_cudnn_on_gpu": {
            "b": true
          },
          "filter_format": {
            "s": "SFdJTw=="
          },
          "num_host_args": {
            "i": "0"
          }
        }
      },
      {
        "name": "resnet_v1_50/block1/unit_2/bottleneck_v1/conv2/Relu",
        "op": "_FusedConv2D",
        "input": [
          "resnet_v1_50/block1/unit_2/bottleneck_v1/conv1/Relu",
          "resnet_v1_50/block1/unit_2/bottleneck_v1/conv2/Conv2D_weights",
          "resnet_v1_50/block1/unit_2/bottleneck_v1/conv2/Conv2D_bn_offset"
        ],
        "device": "/device:CPU:0",
        "attr": {
          "dilations": {
            "list": {
              "i": [
                "1",
                "1",
                "1",
                "1"
              ]
            }
          },
          "padding": {
            "s": "U0FNRQ=="
          },
          "fused_ops": {
            "list": {
              "s": [
                "Qmlhc0FkZA==",
                "UmVsdQ=="
              ]
            }
          },
          "num_host_args": {
            "i": "0"
          },
          "num_args": {
            "i": "1"
          },
          "epsilon": {
            "f": 0.0
          },
          "use_cudnn_on_gpu": {
            "b": true
          },
          "filter_format": {
            "s": "SFdJTw=="
          },
          "explicit_paddings": {
            "list": {}
          },
          "TArgs": {
            "list": {
              "type": [
                "DT_FLOAT"
              ]
            }
          },
          "strides": {
            "list": {
              "i": [
                "1",
                "1",
                "1",
                "1"
              ]
            }
          },
          "data_format": {
            "s": "TkhXQw=="
          },
          "leakyrelu_alpha": {
            "f": 0.2
          },
          "T": {
            "type": "DT_FLOAT"
          }
        }
      },
      {
        "name": "resnet_v1_50/block1/unit_2/bottleneck_v1/conv3/BatchNorm/FusedBatchNorm",
        "op": "_FusedConv2D",
        "input": [
          "resnet_v1_50/block1/unit_2/bottleneck_v1/conv2/Relu",
          "resnet_v1_50/block1/unit_2/bottleneck_v1/conv3/Conv2D_weights",
          "resnet_v1_50/block1/unit_2/bottleneck_v1/conv3/Conv2D_bn_offset"
        ],
        "device": "/device:CPU:0",
        "attr": {
          "num_args": {
            "i": "1"
          },
          "strides": {
            "list": {
              "i": [
                "1",
                "1",
                "1",
                "1"
              ]
            }
          },
          "filter_format": {
            "s": "SFdJTw=="
          },
          "dilations": {
            "list": {
              "i": [
                "1",
                "1",
                "1",
                "1"
              ]
            }
          },
          "num_host_args": {
            "i": "0"
          },
          "epsilon": {
            "f": 0.0
          },
          "leakyrelu_alpha": {
            "f": 0.2
          },
          "padding": {
            "s": "U0FNRQ=="
          },
          "use_cudnn_on_gpu": {
            "b": true
          },
          "explicit_paddings": {
            "list": {}
          },
          "TArgs": {
            "list": {
              "type": [
                "DT_FLOAT"
              ]
            }
          },
          "fused_ops": {
            "list": {
              "s": [
                "Qmlhc0FkZA=="
              ]
            }
          },
          "data_format": {
            "s": "TkhXQw=="
          },
          "T": {
            "type": "DT_FLOAT"
          }
        }
      },
      {
        "name": "resnet_v1_50/block1/unit_2/bottleneck_v1/add",
        "op": "Add",
        "input": [
          "resnet_v1_50/block1/unit_1/bottleneck_v1/Relu",
          "resnet_v1_50/block1/unit_2/bottleneck_v1/conv3/BatchNorm/FusedBatchNorm"
        ],
        "attr": {
          "T": {
            "type": "DT_FLOAT"
          }
        }
      },
      {
        "name": "resnet_v1_50/block1/unit_2/bottleneck_v1/Relu",
        "op": "Relu",
        "input": [
          "resnet_v1_50/block1/unit_2/bottleneck_v1/add"
        ],
        "attr": {
          "T": {
            "type": "DT_FLOAT"
          }
        }
      },
      {
        "name": "resnet_v1_50/block1/unit_3/bottleneck_v1/shortcut/MaxPool",
        "op": "MaxPool",
        "input": [
          "resnet_v1_50/block1/unit_2/bottleneck_v1/Relu"
        ],
        "attr": {
          "T": {
            "type": "DT_FLOAT"
          },
          "ksize": {
            "list": {
              "i": [
                "1",
                "1",
                "1",
                "1"
              ]
            }
          },
          "strides": {
            "list": {
              "i": [
                "1",
                "2",
                "2",
                "1"
              ]
            }
          },
          "padding": {
            "s": "U0FNRQ=="
          },
          "explicit_paddings": {
            "list": {}
          },
          "data_format": {
            "s": "TkhXQw=="
          }
        }
      },
      {
        "name": "resnet_v1_50/block1/unit_3/bottleneck_v1/conv1/Relu",
        "op": "_FusedConv2D",
        "input": [
          "resnet_v1_50/block1/unit_2/bottleneck_v1/Relu",
          "resnet_v1_50/block1/unit_3/bottleneck_v1/conv1/Conv2D_weights",
          "resnet_v1_50/block1/unit_3/bottleneck_v1/conv1/Conv2D_bn_offset"
        ],
        "device": "/device:CPU:0",
        "attr": {
          "epsilon": {
            "f": 0.0
          },
          "num_args": {
            "i": "1"
          },
          "T": {
            "type": "DT_FLOAT"
          },
          "use_cudnn_on_gpu": {
            "b": true
          },
          "explicit_paddings": {
            "list": {}
          },
          "padding": {
            "s": "U0FNRQ=="
          },
          "leakyrelu_alpha": {
            "f": 0.2
          },
          "filter_format": {
            "s": "SFdJTw=="
          },
          "fused_ops": {
            "list": {
              "s": [
                "Qmlhc0FkZA==",
                "UmVsdQ=="
              ]
            }
          },
          "strides": {
            "list": {
              "i": [
                "1",
                "1",
                "1",
                "1"
              ]
            }
          },
          "TArgs": {
            "list": {
              "type": [
                "DT_FLOAT"
              ]
            }
          },
          "num_host_args": {
            "i": "0"
          },
          "data_format": {
            "s": "TkhXQw=="
          },
          "dilations": {
            "list": {
              "i": [
                "1",
                "1",
                "1",
                "1"
              ]
            }
          }
        }
      },
      {
        "name": "resnet_v1_50/block1/unit_3/bottleneck_v1/Pad",
        "op": "Pad",
        "input": [
          "resnet_v1_50/block1/unit_3/bottleneck_v1/conv1/Relu",
          "resnet_v1_50/block1/unit_3/bottleneck_v1/Pad/paddings"
        ],
        "attr": {
          "T": {
            "type": "DT_FLOAT"
          },
          "Tpaddings": {
            "type": "DT_INT32"
          }
        }
      },
      {
        "name": "resnet_v1_50/block1/unit_3/bottleneck_v1/conv2/Relu",
        "op": "_FusedConv2D",
        "input": [
          "resnet_v1_50/block1/unit_3/bottleneck_v1/Pad",
          "resnet_v1_50/block1/unit_3/bottleneck_v1/conv2/Conv2D_weights",
          "resnet_v1_50/block1/unit_3/bottleneck_v1/conv2/Conv2D_bn_offset"
        ],
        "device": "/device:CPU:0",
        "attr": {
          "epsilon": {
            "f": 0.0
          },
          "strides": {
            "list": {
              "i": [
                "1",
                "2",
                "2",
                "1"
              ]
            }
          },
          "T": {
            "type": "DT_FLOAT"
          },
          "use_cudnn_on_gpu": {
            "b": true
          },
          "dilations": {
            "list": {
              "i": [
                "1",
                "1",
                "1",
                "1"
              ]
            }
          },
          "fused_ops": {
            "list": {
              "s": [
                "Qmlhc0FkZA==",
                "UmVsdQ=="
              ]
            }
          },
          "data_format": {
            "s": "TkhXQw=="
          },
          "num_args": {
            "i": "1"
          },
          "filter_format": {
            "s": "SFdJTw=="
          },
          "leakyrelu_alpha": {
            "f": 0.2
          },
          "explicit_paddings": {
            "list": {}
          },
          "num_host_args": {
            "i": "0"
          },
          "padding": {
            "s": "VkFMSUQ="
          },
          "TArgs": {
            "list": {
              "type": [
                "DT_FLOAT"
              ]
            }
          }
        }
      },
      {
        "name": "resnet_v1_50/block1/unit_3/bottleneck_v1/conv3/BatchNorm/FusedBatchNorm",
        "op": "_FusedConv2D",
        "input": [
          "resnet_v1_50/block1/unit_3/bottleneck_v1/conv2/Relu",
          "resnet_v1_50/block1/unit_3/bottleneck_v1/conv3/Conv2D_weights",
          "resnet_v1_50/block1/unit_3/bottleneck_v1/conv3/Conv2D_bn_offset"
        ],
        "device": "/device:CPU:0",
        "attr": {
          "num_host_args": {
            "i": "0"
          },
          "explicit_paddings": {
            "list": {}
          },
          "fused_ops": {
            "list": {
              "s": [
                "Qmlhc0FkZA=="
              ]
            }
          },
          "TArgs": {
            "list": {
              "type": [
                "DT_FLOAT"
              ]
            }
          },
          "use_cudnn_on_gpu": {
            "b": true
          },
          "T": {
            "type": "DT_FLOAT"
          },
          "strides": {
            "list": {
              "i": [
                "1",
                "1",
                "1",
                "1"
              ]
            }
          },
          "dilations": {
            "list": {
              "i": [
                "1",
                "1",
                "1",
                "1"
              ]
            }
          },
          "leakyrelu_alpha": {
            "f": 0.2
          },
          "epsilon": {
            "f": 0.0
          },
          "filter_format": {
            "s": "SFdJTw=="
          },
          "padding": {
            "s": "U0FNRQ=="
          },
          "data_format": {
            "s": "TkhXQw=="
          },
          "num_args": {
            "i": "1"
          }
        }
      },
      {
        "name": "resnet_v1_50/block1/unit_3/bottleneck_v1/add",
        "op": "Add",
        "input": [
          "resnet_v1_50/block1/unit_3/bottleneck_v1/shortcut/MaxPool",
          "resnet_v1_50/block1/unit_3/bottleneck_v1/conv3/BatchNorm/FusedBatchNorm"
        ],
        "attr": {
          "T": {
            "type": "DT_FLOAT"
          }
        }
      },
      {
        "name": "resnet_v1_50/block1/unit_3/bottleneck_v1/Relu",
        "op": "Relu",
        "input": [
          "resnet_v1_50/block1/unit_3/bottleneck_v1/add"
        ],
        "attr": {
          "T": {
            "type": "DT_FLOAT"
          }
        }
      },
      {
        "name": "resnet_v1_50/block2/unit_1/bottleneck_v1/shortcut/BatchNorm/FusedBatchNorm",
        "op": "_FusedConv2D",
        "input": [
          "resnet_v1_50/block1/unit_3/bottleneck_v1/Relu",
          "resnet_v1_50/block2/unit_1/bottleneck_v1/shortcut/Conv2D_weights",
          "resnet_v1_50/block2/unit_1/bottleneck_v1/shortcut/Conv2D_bn_offset"
        ],
        "device": "/device:CPU:0",
        "attr": {
          "use_cudnn_on_gpu": {
            "b": true
          },
          "T": {
            "type": "DT_FLOAT"
          },
          "epsilon": {
            "f": 0.0
          },
          "explicit_paddings": {
            "list": {}
          },
          "fused_ops": {
            "list": {
              "s": [
                "Qmlhc0FkZA=="
              ]
            }
          },
          "leakyrelu_alpha": {
            "f": 0.2
          },
          "data_format": {
            "s": "TkhXQw=="
          },
          "padding": {
            "s": "U0FNRQ=="
          },
          "filter_format": {
            "s": "SFdJTw=="
          },
          "num_args": {
            "i": "1"
          },
          "num_host_args": {
            "i": "0"
          },
          "strides": {
            "list": {
              "i": [
                "1",
                "1",
                "1",
                "1"
              ]
            }
          },
          "dilations": {
            "list": {
              "i": [
                "1",
                "1",
                "1",
                "1"
              ]
            }
          },
          "TArgs": {
            "list": {
              "type": [
                "DT_FLOAT"
              ]
            }
          }
        }
      },
      {
        "name": "resnet_v1_50/block2/unit_1/bottleneck_v1/conv1/Relu",
        "op": "_FusedConv2D",
        "input": [
          "resnet_v1_50/block1/unit_3/bottleneck_v1/Relu",
          "resnet_v1_50/block2/unit_1/bottleneck_v1/conv1/Conv2D_weights",
          "resnet_v1_50/block2/unit_1/bottleneck_v1/conv1/Conv2D_bn_offset"
        ],
        "device": "/device:CPU:0",
        "attr": {
          "leakyrelu_alpha": {
            "f": 0.2
          },
          "data_format": {
            "s": "TkhXQw=="
          },
          "use_cudnn_on_gpu": {
            "b": true
          },
          "T": {
            "type": "DT_FLOAT"
          },
          "TArgs": {
            "list": {
              "type": [
                "DT_FLOAT"
              ]
            }
          },
          "strides": {
            "list": {
              "i": [
                "1",
                "1",
                "1",
                "1"
              ]
            }
          },
          "num_host_args": {
            "i": "0"
          },
          "explicit_paddings": {
            "list": {}
          },
          "padding": {
            "s": "U0FNRQ=="
          },
          "filter_format": {
            "s": "SFdJTw=="
          },
          "epsilon": {
            "f": 0.0
          },
          "num_args": {
            "i": "1"
          },
          "fused_ops": {
            "list": {
              "s": [
                "Qmlhc0FkZA==",
                "UmVsdQ=="
              ]
            }
          },
          "dilations": {
            "list": {
              "i": [
                "1",
                "1",
                "1",
                "1"
              ]
            }
          }
        }
      },
      {
        "name": "resnet_v1_50/block2/unit_1/bottleneck_v1/conv2/Relu",
        "op": "_FusedConv2D",
        "input": [
          "resnet_v1_50/block2/unit_1/bottleneck_v1/conv1/Relu",
          "resnet_v1_50/block2/unit_1/bottleneck_v1/conv2/Conv2D_weights",
          "resnet_v1_50/block2/unit_1/bottleneck_v1/conv2/Conv2D_bn_offset"
        ],
        "device": "/device:CPU:0",
        "attr": {
          "explicit_paddings": {
            "list": {}
          },
          "num_host_args": {
            "i": "0"
          },
          "leakyrelu_alpha": {
            "f": 0.2
          },
          "use_cudnn_on_gpu": {
            "b": true
          },
          "strides": {
            "list": {
              "i": [
                "1",
                "1",
                "1",
                "1"
              ]
            }
          },
          "TArgs": {
            "list": {
              "type": [
                "DT_FLOAT"
              ]
            }
          },
          "padding": {
            "s": "U0FNRQ=="
          },
          "filter_format": {
            "s": "SFdJTw=="
          },
          "num_args": {
            "i": "1"
          },
          "data_format": {
            "s": "TkhXQw=="
          },
          "epsilon": {
            "f": 0.0
          },
          "T": {
            "type": "DT_FLOAT"
          },
          "fused_ops": {
            "list": {
              "s": [
                "Qmlhc0FkZA==",
                "UmVsdQ=="
              ]
            }
          },
          "dilations": {
            "list": {
              "i": [
                "1",
                "1",
                "1",
                "1"
              ]
            }
          }
        }
      },
      {
        "name": "resnet_v1_50/block2/unit_1/bottleneck_v1/conv3/BatchNorm/FusedBatchNorm",
        "op": "_FusedConv2D",
        "input": [
          "resnet_v1_50/block2/unit_1/bottleneck_v1/conv2/Relu",
          "resnet_v1_50/block2/unit_1/bottleneck_v1/conv3/Conv2D_weights",
          "resnet_v1_50/block2/unit_1/bottleneck_v1/conv3/Conv2D_bn_offset"
        ],
        "device": "/device:CPU:0",
        "attr": {
          "fused_ops": {
            "list": {
              "s": [
                "Qmlhc0FkZA=="
              ]
            }
          },
          "data_format": {
            "s": "TkhXQw=="
          },
          "num_host_args": {
            "i": "0"
          },
          "TArgs": {
            "list": {
              "type": [
                "DT_FLOAT"
              ]
            }
          },
          "leakyrelu_alpha": {
            "f": 0.2
          },
          "epsilon": {
            "f": 0.0
          },
          "num_args": {
            "i": "1"
          },
          "explicit_paddings": {
            "list": {}
          },
          "padding": {
            "s": "U0FNRQ=="
          },
          "T": {
            "type": "DT_FLOAT"
          },
          "filter_format": {
            "s": "SFdJTw=="
          },
          "dilations": {
            "list": {
              "i": [
                "1",
                "1",
                "1",
                "1"
              ]
            }
          },
          "use_cudnn_on_gpu": {
            "b": true
          },
          "strides": {
            "list": {
              "i": [
                "1",
                "1",
                "1",
                "1"
              ]
            }
          }
        }
      },
      {
        "name": "resnet_v1_50/block2/unit_1/bottleneck_v1/add",
        "op": "Add",
        "input": [
          "resnet_v1_50/block2/unit_1/bottleneck_v1/shortcut/BatchNorm/FusedBatchNorm",
          "resnet_v1_50/block2/unit_1/bottleneck_v1/conv3/BatchNorm/FusedBatchNorm"
        ],
        "attr": {
          "T": {
            "type": "DT_FLOAT"
          }
        }
      },
      {
        "name": "resnet_v1_50/block2/unit_1/bottleneck_v1/Relu",
        "op": "Relu",
        "input": [
          "resnet_v1_50/block2/unit_1/bottleneck_v1/add"
        ],
        "attr": {
          "T": {
            "type": "DT_FLOAT"
          }
        }
      },
      {
        "name": "resnet_v1_50/block2/unit_2/bottleneck_v1/conv1/Relu",
        "op": "_FusedConv2D",
        "input": [
          "resnet_v1_50/block2/unit_1/bottleneck_v1/Relu",
          "resnet_v1_50/block2/unit_2/bottleneck_v1/conv1/Conv2D_weights",
          "resnet_v1_50/block2/unit_2/bottleneck_v1/conv1/Conv2D_bn_offset"
        ],
        "device": "/device:CPU:0",
        "attr": {
          "use_cudnn_on_gpu": {
            "b": true
          },
          "dilations": {
            "list": {
              "i": [
                "1",
                "1",
                "1",
                "1"
              ]
            }
          },
          "filter_format": {
            "s": "SFdJTw=="
          },
          "fused_ops": {
            "list": {
              "s": [
                "Qmlhc0FkZA==",
                "UmVsdQ=="
              ]
            }
          },
          "num_host_args": {
            "i": "0"
          },
          "explicit_paddings": {
            "list": {}
          },
          "leakyrelu_alpha": {
            "f": 0.2
          },
          "T": {
            "type": "DT_FLOAT"
          },
          "strides": {
            "list": {
              "i": [
                "1",
                "1",
                "1",
                "1"
              ]
            }
          },
          "data_format": {
            "s": "TkhXQw=="
          },
          "TArgs": {
            "list": {
              "type": [
                "DT_FLOAT"
              ]
            }
          },
          "epsilon": {
            "f": 0.0
          },
          "padding": {
            "s": "U0FNRQ=="
          },
          "num_args": {
            "i": "1"
          }
        }
      },
      {
        "name": "resnet_v1_50/block2/unit_2/bottleneck_v1/conv2/Relu",
        "op": "_FusedConv2D",
        "input": [
          "resnet_v1_50/block2/unit_2/bottleneck_v1/conv1/Relu",
          "resnet_v1_50/block2/unit_2/bottleneck_v1/conv2/Conv2D_weights",
          "resnet_v1_50/block2/unit_2/bottleneck_v1/conv2/Conv2D_bn_offset"
        ],
        "device": "/device:CPU:0",
        "attr": {
          "filter_format": {
            "s": "SFdJTw=="
          },
          "strides": {
            "list": {
              "i": [
                "1",
                "1",
                "1",
                "1"
              ]
            }
          },
          "num_host_args": {
            "i": "0"
          },
          "TArgs": {
            "list": {
              "type": [
                "DT_FLOAT"
              ]
            }
          },
          "leakyrelu_alpha": {
            "f": 0.2
          },
          "explicit_paddings": {
            "list": {}
          },
          "use_cudnn_on_gpu": {
            "b": true
          },
          "T": {
            "type": "DT_FLOAT"
          },
          "data_format": {
            "s": "TkhXQw=="
          },
          "num_args": {
            "i": "1"
          },
          "padding": {
            "s": "U0FNRQ=="
          },
          "fused_ops": {
            "list": {
              "s": [
                "Qmlhc0FkZA==",
                "UmVsdQ=="
              ]
            }
          },
          "dilations": {
            "list": {
              "i": [
                "1",
                "1",
                "1",
                "1"
              ]
            }
          },
          "epsilon": {
            "f": 0.0
          }
        }
      },
      {
        "name": "resnet_v1_50/block2/unit_2/bottleneck_v1/conv3/BatchNorm/FusedBatchNorm",
        "op": "_FusedConv2D",
        "input": [
          "resnet_v1_50/block2/unit_2/bottleneck_v1/conv2/Relu",
          "resnet_v1_50/block2/unit_2/bottleneck_v1/conv3/Conv2D_weights",
          "resnet_v1_50/block2/unit_2/bottleneck_v1/conv3/Conv2D_bn_offset"
        ],
        "device": "/device:CPU:0",
        "attr": {
          "leakyrelu_alpha": {
            "f": 0.2
          },
          "padding": {
            "s": "U0FNRQ=="
          },
          "dilations": {
            "list": {
              "i": [
                "1",
                "1",
                "1",
                "1"
              ]
            }
          },
          "strides": {
            "list": {
              "i": [
                "1",
                "1",
                "1",
                "1"
              ]
            }
          },
          "data_format": {
            "s": "TkhXQw=="
          },
          "TArgs": {
            "list": {
              "type": [
                "DT_FLOAT"
              ]
            }
          },
          "num_host_args": {
            "i": "0"
          },
          "T": {
            "type": "DT_FLOAT"
          },
          "use_cudnn_on_gpu": {
            "b": true
          },
          "explicit_paddings": {
            "list": {}
          },
          "fused_ops": {
            "list": {
              "s": [
                "Qmlhc0FkZA=="
              ]
            }
          },
          "filter_format": {
            "s": "SFdJTw=="
          },
          "epsilon": {
            "f": 0.0
          },
          "num_args": {
            "i": "1"
          }
        }
      },
      {
        "name": "resnet_v1_50/block2/unit_2/bottleneck_v1/add",
        "op": "Add",
        "input": [
          "resnet_v1_50/block2/unit_1/bottleneck_v1/Relu",
          "resnet_v1_50/block2/unit_2/bottleneck_v1/conv3/BatchNorm/FusedBatchNorm"
        ],
        "attr": {
          "T": {
            "type": "DT_FLOAT"
          }
        }
      },
      {
        "name": "resnet_v1_50/block2/unit_2/bottleneck_v1/Relu",
        "op": "Relu",
        "input": [
          "resnet_v1_50/block2/unit_2/bottleneck_v1/add"
        ],
        "attr": {
          "T": {
            "type": "DT_FLOAT"
          }
        }
      },
      {
        "name": "resnet_v1_50/block2/unit_3/bottleneck_v1/conv1/Relu",
        "op": "_FusedConv2D",
        "input": [
          "resnet_v1_50/block2/unit_2/bottleneck_v1/Relu",
          "resnet_v1_50/block2/unit_3/bottleneck_v1/conv1/Conv2D_weights",
          "resnet_v1_50/block2/unit_3/bottleneck_v1/conv1/Conv2D_bn_offset"
        ],
        "device": "/device:CPU:0",
        "attr": {
          "use_cudnn_on_gpu": {
            "b": true
          },
          "filter_format": {
            "s": "SFdJTw=="
          },
          "padding": {
            "s": "U0FNRQ=="
          },
          "explicit_paddings": {
            "list": {}
          },
          "leakyrelu_alpha": {
            "f": 0.2
          },
          "num_host_args": {
            "i": "0"
          },
          "fused_ops": {
            "list": {
              "s": [
                "Qmlhc0FkZA==",
                "UmVsdQ=="
              ]
            }
          },
          "T": {
            "type": "DT_FLOAT"
          },
          "TArgs": {
            "list": {
              "type": [
                "DT_FLOAT"
              ]
            }
          },
          "strides": {
            "list": {
              "i": [
                "1",
                "1",
                "1",
                "1"
              ]
            }
          },
          "num_args": {
            "i": "1"
          },
          "dilations": {
            "list": {
              "i": [
                "1",
                "1",
                "1",
                "1"
              ]
            }
          },
          "epsilon": {
            "f": 0.0
          },
          "data_format": {
            "s": "TkhXQw=="
          }
        }
      },
      {
        "name": "resnet_v1_50/block2/unit_3/bottleneck_v1/conv2/Relu",
        "op": "_FusedConv2D",
        "input": [
          "resnet_v1_50/block2/unit_3/bottleneck_v1/conv1/Relu",
          "resnet_v1_50/block2/unit_3/bottleneck_v1/conv2/Conv2D_weights",
          "resnet_v1_50/block2/unit_3/bottleneck_v1/conv2/Conv2D_bn_offset"
        ],
        "device": "/device:CPU:0",
        "attr": {
          "filter_format": {
            "s": "SFdJTw=="
          },
          "TArgs": {
            "list": {
              "type": [
                "DT_FLOAT"
              ]
            }
          },
          "T": {
            "type": "DT_FLOAT"
          },
          "fused_ops": {
            "list": {
              "s": [
                "Qmlhc0FkZA==",
                "UmVsdQ=="
              ]
            }
          },
          "strides": {
            "list": {
              "i": [
                "1",
                "1",
                "1",
                "1"
              ]
            }
          },
          "explicit_paddings": {
            "list": {}
          },
          "data_format": {
            "s": "TkhXQw=="
          },
          "use_cudnn_on_gpu": {
            "b": true
          },
          "epsilon": {
            "f": 0.0
          },
          "dilations": {
            "list": {
              "i": [
                "1",
                "1",
                "1",
                "1"
              ]
            }
          },
          "leakyrelu_alpha": {
            "f": 0.2
          },
          "padding": {
            "s": "U0FNRQ=="
          },
          "num_args": {
            "i": "1"
          },
          "num_host_args": {
            "i": "0"
          }
        }
      },
      {
        "name": "resnet_v1_50/block2/unit_3/bottleneck_v1/conv3/BatchNorm/FusedBatchNorm",
        "op": "_FusedConv2D",
        "input": [
          "resnet_v1_50/block2/unit_3/bottleneck_v1/conv2/Relu",
          "resnet_v1_50/block2/unit_3/bottleneck_v1/conv3/Conv2D_weights",
          "resnet_v1_50/block2/unit_3/bottleneck_v1/conv3/Conv2D_bn_offset"
        ],
        "device": "/device:CPU:0",
        "attr": {
          "T": {
            "type": "DT_FLOAT"
          },
          "fused_ops": {
            "list": {
              "s": [
                "Qmlhc0FkZA=="
              ]
            }
          },
          "num_args": {
            "i": "1"
          },
          "leakyrelu_alpha": {
            "f": 0.2
          },
          "use_cudnn_on_gpu": {
            "b": true
          },
          "padding": {
            "s": "U0FNRQ=="
          },
          "num_host_args": {
            "i": "0"
          },
          "dilations": {
            "list": {
              "i": [
                "1",
                "1",
                "1",
                "1"
              ]
            }
          },
          "epsilon": {
            "f": 0.0
          },
          "TArgs": {
            "list": {
              "type": [
                "DT_FLOAT"
              ]
            }
          },
          "data_format": {
            "s": "TkhXQw=="
          },
          "strides": {
            "list": {
              "i": [
                "1",
                "1",
                "1",
                "1"
              ]
            }
          },
          "explicit_paddings": {
            "list": {}
          },
          "filter_format": {
            "s": "SFdJTw=="
          }
        }
      },
      {
        "name": "resnet_v1_50/block2/unit_3/bottleneck_v1/add",
        "op": "Add",
        "input": [
          "resnet_v1_50/block2/unit_2/bottleneck_v1/Relu",
          "resnet_v1_50/block2/unit_3/bottleneck_v1/conv3/BatchNorm/FusedBatchNorm"
        ],
        "attr": {
          "T": {
            "type": "DT_FLOAT"
          }
        }
      },
      {
        "name": "resnet_v1_50/block2/unit_3/bottleneck_v1/Relu",
        "op": "Relu",
        "input": [
          "resnet_v1_50/block2/unit_3/bottleneck_v1/add"
        ],
        "attr": {
          "T": {
            "type": "DT_FLOAT"
          }
        }
      },
      {
        "name": "resnet_v1_50/block2/unit_4/bottleneck_v1/shortcut/MaxPool",
        "op": "MaxPool",
        "input": [
          "resnet_v1_50/block2/unit_3/bottleneck_v1/Relu"
        ],
        "attr": {
          "explicit_paddings": {
            "list": {}
          },
          "padding": {
            "s": "U0FNRQ=="
          },
          "strides": {
            "list": {
              "i": [
                "1",
                "2",
                "2",
                "1"
              ]
            }
          },
          "data_format": {
            "s": "TkhXQw=="
          },
          "T": {
            "type": "DT_FLOAT"
          },
          "ksize": {
            "list": {
              "i": [
                "1",
                "1",
                "1",
                "1"
              ]
            }
          }
        }
      },
      {
        "name": "resnet_v1_50/block2/unit_4/bottleneck_v1/conv1/Relu",
        "op": "_FusedConv2D",
        "input": [
          "resnet_v1_50/block2/unit_3/bottleneck_v1/Relu",
          "resnet_v1_50/block2/unit_4/bottleneck_v1/conv1/Conv2D_weights",
          "resnet_v1_50/block2/unit_4/bottleneck_v1/conv1/Conv2D_bn_offset"
        ],
        "device": "/device:CPU:0",
        "attr": {
          "data_format": {
            "s": "TkhXQw=="
          },
          "padding": {
            "s": "U0FNRQ=="
          },
          "filter_format": {
            "s": "SFdJTw=="
          },
          "use_cudnn_on_gpu": {
            "b": true
          },
          "strides": {
            "list": {
              "i": [
                "1",
                "1",
                "1",
                "1"
              ]
            }
          },
          "dilations": {
            "list": {
              "i": [
                "1",
                "1",
                "1",
                "1"
              ]
            }
          },
          "explicit_paddings": {
            "list": {}
          },
          "num_args": {
            "i": "1"
          },
          "TArgs": {
            "list": {
              "type": [
                "DT_FLOAT"
              ]
            }
          },
          "T": {
            "type": "DT_FLOAT"
          },
          "epsilon": {
            "f": 0.0
          },
          "fused_ops": {
            "list": {
              "s": [
                "Qmlhc0FkZA==",
                "UmVsdQ=="
              ]
            }
          },
          "leakyrelu_alpha": {
            "f": 0.2
          },
          "num_host_args": {
            "i": "0"
          }
        }
      },
      {
        "name": "resnet_v1_50/block2/unit_4/bottleneck_v1/Pad",
        "op": "Pad",
        "input": [
          "resnet_v1_50/block2/unit_4/bottleneck_v1/conv1/Relu",
          "resnet_v1_50/block2/unit_4/bottleneck_v1/Pad/paddings"
        ],
        "attr": {
          "T": {
            "type": "DT_FLOAT"
          },
          "Tpaddings": {
            "type": "DT_INT32"
          }
        }
      },
      {
        "name": "resnet_v1_50/block2/unit_4/bottleneck_v1/conv2/Relu",
        "op": "_FusedConv2D",
        "input": [
          "resnet_v1_50/block2/unit_4/bottleneck_v1/Pad",
          "resnet_v1_50/block2/unit_4/bottleneck_v1/conv2/Conv2D_weights",
          "resnet_v1_50/block2/unit_4/bottleneck_v1/conv2/Conv2D_bn_offset"
        ],
        "device": "/device:CPU:0",
        "attr": {
          "num_args": {
            "i": "1"
          },
          "leakyrelu_alpha": {
            "f": 0.2
          },
          "strides": {
            "list": {
              "i": [
                "1",
                "2",
                "2",
                "1"
              ]
            }
          },
          "dilations": {
            "list": {
              "i": [
                "1",
                "1",
                "1",
                "1"
              ]
            }
          },
          "TArgs": {
            "list": {
              "type": [
                "DT_FLOAT"
              ]
            }
          },
          "padding": {
            "s": "VkFMSUQ="
          },
          "data_format": {
            "s": "TkhXQw=="
          },
          "fused_ops": {
            "list": {
              "s": [
                "Qmlhc0FkZA==",
                "UmVsdQ=="
              ]
            }
          },
          "T": {
            "type": "DT_FLOAT"
          },
          "filter_format": {
            "s": "SFdJTw=="
          },
          "epsilon": {
            "f": 0.0
          },
          "explicit_paddings": {
            "list": {}
          },
          "use_cudnn_on_gpu": {
            "b": true
          },
          "num_host_args": {
            "i": "0"
          }
        }
      },
      {
        "name": "resnet_v1_50/block2/unit_4/bottleneck_v1/conv3/BatchNorm/FusedBatchNorm",
        "op": "_FusedConv2D",
        "input": [
          "resnet_v1_50/block2/unit_4/bottleneck_v1/conv2/Relu",
          "resnet_v1_50/block2/unit_4/bottleneck_v1/conv3/Conv2D_weights",
          "resnet_v1_50/block2/unit_4/bottleneck_v1/conv3/Conv2D_bn_offset"
        ],
        "device": "/device:CPU:0",
        "attr": {
          "use_cudnn_on_gpu": {
            "b": true
          },
          "strides": {
            "list": {
              "i": [
                "1",
                "1",
                "1",
                "1"
              ]
            }
          },
          "data_format": {
            "s": "TkhXQw=="
          },
          "fused_ops": {
            "list": {
              "s": [
                "Qmlhc0FkZA=="
              ]
            }
          },
          "T": {
            "type": "DT_FLOAT"
          },
          "dilations": {
            "list": {
              "i": [
                "1",
                "1",
                "1",
                "1"
              ]
            }
          },
          "explicit_paddings": {
            "list": {}
          },
          "padding": {
            "s": "U0FNRQ=="
          },
          "num_host_args": {
            "i": "0"
          },
          "leakyrelu_alpha": {
            "f": 0.2
          },
          "epsilon": {
            "f": 0.0
          },
          "filter_format": {
            "s": "SFdJTw=="
          },
          "TArgs": {
            "list": {
              "type": [
                "DT_FLOAT"
              ]
            }
          },
          "num_args": {
            "i": "1"
          }
        }
      },
      {
        "name": "resnet_v1_50/block2/unit_4/bottleneck_v1/add",
        "op": "Add",
        "input": [
          "resnet_v1_50/block2/unit_4/bottleneck_v1/shortcut/MaxPool",
          "resnet_v1_50/block2/unit_4/bottleneck_v1/conv3/BatchNorm/FusedBatchNorm"
        ],
        "attr": {
          "T": {
            "type": "DT_FLOAT"
          }
        }
      },
      {
        "name": "resnet_v1_50/block2/unit_4/bottleneck_v1/Relu",
        "op": "Relu",
        "input": [
          "resnet_v1_50/block2/unit_4/bottleneck_v1/add"
        ],
        "attr": {
          "T": {
            "type": "DT_FLOAT"
          }
        }
      },
      {
        "name": "resnet_v1_50/block3/unit_1/bottleneck_v1/shortcut/BatchNorm/FusedBatchNorm",
        "op": "_FusedConv2D",
        "input": [
          "resnet_v1_50/block2/unit_4/bottleneck_v1/Relu",
          "resnet_v1_50/block3/unit_1/bottleneck_v1/shortcut/Conv2D_weights",
          "resnet_v1_50/block3/unit_1/bottleneck_v1/shortcut/Conv2D_bn_offset"
        ],
        "device": "/device:CPU:0",
        "attr": {
          "num_args": {
            "i": "1"
          },
          "T": {
            "type": "DT_FLOAT"
          },
          "padding": {
            "s": "U0FNRQ=="
          },
          "filter_format": {
            "s": "SFdJTw=="
          },
          "num_host_args": {
            "i": "0"
          },
          "epsilon": {
            "f": 0.0
          },
          "fused_ops": {
            "list": {
              "s": [
                "Qmlhc0FkZA=="
              ]
            }
          },
          "dilations": {
            "list": {
              "i": [
                "1",
                "1",
                "1",
                "1"
              ]
            }
          },
          "data_format": {
            "s": "TkhXQw=="
          },
          "strides": {
            "list": {
              "i": [
                "1",
                "1",
                "1",
                "1"
              ]
            }
          },
          "leakyrelu_alpha": {
            "f": 0.2
          },
          "use_cudnn_on_gpu": {
            "b": true
          },
          "TArgs": {
            "list": {
              "type": [
                "DT_FLOAT"
              ]
            }
          },
          "explicit_paddings": {
            "list": {}
          }
        }
      },
      {
        "name": "resnet_v1_50/block3/unit_1/bottleneck_v1/conv1/Relu",
        "op": "_FusedConv2D",
        "input": [
          "resnet_v1_50/block2/unit_4/bottleneck_v1/Relu",
          "resnet_v1_50/block3/unit_1/bottleneck_v1/conv1/Conv2D_weights",
          "resnet_v1_50/block3/unit_1/bottleneck_v1/conv1/Conv2D_bn_offset"
        ],
        "device": "/device:CPU:0",
        "attr": {
          "use_cudnn_on_gpu": {
            "b": true
          },
          "padding": {
            "s": "U0FNRQ=="
          },
          "num_args": {
            "i": "1"
          },
          "T": {
            "type": "DT_FLOAT"
          },
          "dilations": {
            "list": {
              "i": [
                "1",
                "1",
                "1",
                "1"
              ]
            }
          },
          "explicit_paddings": {
            "list": {}
          },
          "strides": {
            "list": {
              "i": [
                "1",
                "1",
                "1",
                "1"
              ]
            }
          },
          "leakyrelu_alpha": {
            "f": 0.2
          },
          "fused_ops": {
            "list": {
              "s": [
                "Qmlhc0FkZA==",
                "UmVsdQ=="
              ]
            }
          },
          "filter_format": {
            "s": "SFdJTw=="
          },
          "epsilon": {
            "f": 0.0
          },
          "TArgs": {
            "list": {
              "type": [
                "DT_FLOAT"
              ]
            }
          },
          "num_host_args": {
            "i": "0"
          },
          "data_format": {
            "s": "TkhXQw=="
          }
        }
      },
      {
        "name": "resnet_v1_50/block3/unit_1/bottleneck_v1/conv2/Relu",
        "op": "_FusedConv2D",
        "input": [
          "resnet_v1_50/block3/unit_1/bottleneck_v1/conv1/Relu",
          "resnet_v1_50/block3/unit_1/bottleneck_v1/conv2/Conv2D_weights",
          "resnet_v1_50/block3/unit_1/bottleneck_v1/conv2/Conv2D_bn_offset"
        ],
        "device": "/device:CPU:0",
        "attr": {
          "T": {
            "type": "DT_FLOAT"
          },
          "use_cudnn_on_gpu": {
            "b": true
          },
          "filter_format": {
            "s": "SFdJTw=="
          },
          "dilations": {
            "list": {
              "i": [
                "1",
                "1",
                "1",
                "1"
              ]
            }
          },
          "fused_ops": {
            "list": {
              "s": [
                "Qmlhc0FkZA==",
                "UmVsdQ=="
              ]
            }
          },
          "leakyrelu_alpha": {
            "f": 0.2
          },
          "data_format": {
            "s": "TkhXQw=="
          },
          "num_args": {
            "i": "1"
          },
          "epsilon": {
            "f": 0.0
          },
          "num_host_args": {
            "i": "0"
          },
          "TArgs": {
            "list": {
              "type": [
                "DT_FLOAT"
              ]
            }
          },
          "explicit_paddings": {
            "list": {}
          },
          "padding": {
            "s": "U0FNRQ=="
          },
          "strides": {
            "list": {
              "i": [
                "1",
                "1",
                "1",
                "1"
              ]
            }
          }
        }
      },
      {
        "name": "resnet_v1_50/block3/unit_1/bottleneck_v1/conv3/BatchNorm/FusedBatchNorm",
        "op": "_FusedConv2D",
        "input": [
          "resnet_v1_50/block3/unit_1/bottleneck_v1/conv2/Relu",
          "resnet_v1_50/block3/unit_1/bottleneck_v1/conv3/Conv2D_weights",
          "resnet_v1_50/block3/unit_1/bottleneck_v1/conv3/Conv2D_bn_offset"
        ],
        "device": "/device:CPU:0",
        "attr": {
          "dilations": {
            "list": {
              "i": [
                "1",
                "1",
                "1",
                "1"
              ]
            }
          },
          "explicit_paddings": {
            "list": {}
          },
          "num_args": {
            "i": "1"
          },
          "T": {
            "type": "DT_FLOAT"
          },
          "num_host_args": {
            "i": "0"
          },
          "strides": {
            "list": {
              "i": [
                "1",
                "1",
                "1",
                "1"
              ]
            }
          },
          "TArgs": {
            "list": {
              "type": [
                "DT_FLOAT"
              ]
            }
          },
          "use_cudnn_on_gpu": {
            "b": true
          },
          "padding": {
            "s": "U0FNRQ=="
          },
          "fused_ops": {
            "list": {
              "s": [
                "Qmlhc0FkZA=="
              ]
            }
          },
          "leakyrelu_alpha": {
            "f": 0.2
          },
          "data_format": {
            "s": "TkhXQw=="
          },
          "epsilon": {
            "f": 0.0
          },
          "filter_format": {
            "s": "SFdJTw=="
          }
        }
      },
      {
        "name": "resnet_v1_50/block3/unit_1/bottleneck_v1/add",
        "op": "Add",
        "input": [
          "resnet_v1_50/block3/unit_1/bottleneck_v1/shortcut/BatchNorm/FusedBatchNorm",
          "resnet_v1_50/block3/unit_1/bottleneck_v1/conv3/BatchNorm/FusedBatchNorm"
        ],
        "attr": {
          "T": {
            "type": "DT_FLOAT"
          }
        }
      },
      {
        "name": "resnet_v1_50/block3/unit_1/bottleneck_v1/Relu",
        "op": "Relu",
        "input": [
          "resnet_v1_50/block3/unit_1/bottleneck_v1/add"
        ],
        "attr": {
          "T": {
            "type": "DT_FLOAT"
          }
        }
      },
      {
        "name": "resnet_v1_50/block3/unit_2/bottleneck_v1/conv1/Relu",
        "op": "_FusedConv2D",
        "input": [
          "resnet_v1_50/block3/unit_1/bottleneck_v1/Relu",
          "resnet_v1_50/block3/unit_2/bottleneck_v1/conv1/Conv2D_weights",
          "resnet_v1_50/block3/unit_2/bottleneck_v1/conv1/Conv2D_bn_offset"
        ],
        "device": "/device:CPU:0",
        "attr": {
          "epsilon": {
            "f": 0.0
          },
          "filter_format": {
            "s": "SFdJTw=="
          },
          "T": {
            "type": "DT_FLOAT"
          },
          "strides": {
            "list": {
              "i": [
                "1",
                "1",
                "1",
                "1"
              ]
            }
          },
          "use_cudnn_on_gpu": {
            "b": true
          },
          "num_host_args": {
            "i": "0"
          },
          "num_args": {
            "i": "1"
          },
          "fused_ops": {
            "list": {
              "s": [
                "Qmlhc0FkZA==",
                "UmVsdQ=="
              ]
            }
          },
          "data_format": {
            "s": "TkhXQw=="
          },
          "TArgs": {
            "list": {
              "type": [
                "DT_FLOAT"
              ]
            }
          },
          "leakyrelu_alpha": {
            "f": 0.2
          },
          "dilations": {
            "list": {
              "i": [
                "1",
                "1",
                "1",
                "1"
              ]
            }
          },
          "padding": {
            "s": "U0FNRQ=="
          },
          "explicit_paddings": {
            "list": {}
          }
        }
      },
      {
        "name": "resnet_v1_50/block3/unit_2/bottleneck_v1/conv2/Relu",
        "op": "_FusedConv2D",
        "input": [
          "resnet_v1_50/block3/unit_2/bottleneck_v1/conv1/Relu",
          "resnet_v1_50/block3/unit_2/bottleneck_v1/conv2/Conv2D_weights",
          "resnet_v1_50/block3/unit_2/bottleneck_v1/conv2/Conv2D_bn_offset"
        ],
        "device": "/device:CPU:0",
…
          },
          "use_cudnn_on_gpu": {
            "b": true
          },
          "num_host_args": {
            "i": "0"
          },
          "num_args": {
            "i": "1"
          },
          "padding": {
            "s": "U0FNRQ=="
          },
          "filter_format": {
            "s": "SFdJTw=="
          },
          "dilations": {
            "list": {
              "i": [
                "1",
                "1",
                "1",
                "1"
              ]
            }
          },
          "explicit_paddings": {
            "list": {}
          },
          "fused_ops": {
            "list": {
              "s": [
                "Qmlhc0FkZA==",
                "UmVsdQ=="
              ]
            }
          },
          "TArgs": {
            "list": {
              "type": [
                "DT_FLOAT"
              ]
            }
          },
          "leakyrelu_alpha": {
            "f": 0.2
          },
          "T": {
            "type": "DT_FLOAT"
          }
        }
      },
      {
        "name": "feature_fusion/Conv_3/Relu",
        "op": "_FusedConv2D",
        "input": [
          "feature_fusion/Conv_2/Relu",
          "feature_fusion/Conv_3/Conv2D_weights",
          "feature_fusion/Conv_3/Conv2D_bn_offset"
        ],
        "device": "/device:CPU:0",
        "attr": {
          "explicit_paddings": {
            "list": {}
          },
          "leakyrelu_alpha": {
            "f": 0.2
          },
          "fused_ops": {
            "list": {
              "s": [
                "Qmlhc0FkZA==",
                "UmVsdQ=="
              ]
            }
          },
          "padding": {
            "s": "U0FNRQ=="
          },
          "epsilon": {
            "f": 0.0
          },
          "strides": {
            "list": {
              "i": [
                "1",
                "1",
                "1",
                "1"
              ]
            }
          },
          "T": {
            "type": "DT_FLOAT"
          },
          "TArgs": {
            "list": {
              "type": [
                "DT_FLOAT"
              ]
            }
          },
          "dilations": {
            "list": {
              "i": [
                "1",
                "1",
                "1",
                "1"
              ]
            }
          },
          "use_cudnn_on_gpu": {
            "b": true
          },
          "num_args": {
            "i": "1"
          },
          "data_format": {
            "s": "TkhXQw=="
          },
          "filter_format": {
            "s": "SFdJTw=="
          },
          "num_host_args": {
            "i": "0"
          }
        }
      },
      {
        "name": "feature_fusion/Shape_4",
        "op": "Shape",
        "input": [
          "feature_fusion/Conv_3/Relu"
        ],
        "attr": {
          "T": {
            "type": "DT_FLOAT"
          },
          "out_type": {
            "type": "DT_INT32"
          }
        }
      },
      {
        "name": "feature_fusion/Shape_5",
        "op": "Shape",
        "input": [
          "feature_fusion/Conv_3/Relu"
        ],
        "attr": {
          "out_type": {
            "type": "DT_INT32"
          },
          "T": {
            "type": "DT_FLOAT"
          }
        }
      },
      {
        "name": "feature_fusion/strided_slice_4",
        "op": "StridedSlice",
        "input": [
          "feature_fusion/Shape_4",
          "feature_fusion/strided_slice_4/stack",
          "feature_fusion/strided_slice_4/stack_1",
          "feature_fusion/strided_slice_4/stack_2"
        ],
        "attr": {
          "end_mask": {
            "i": "0"
          },
          "Index": {
            "type": "DT_INT32"
          },
          "shrink_axis_mask": {
            "i": "1"
          },
          "new_axis_mask": {
            "i": "0"
          },
          "begin_mask": {
            "i": "0"
          },
          "ellipsis_mask": {
            "i": "0"
          },
          "T": {
            "type": "DT_INT32"
          }
        }
      },
      {
        "name": "feature_fusion/strided_slice_5",
        "op": "StridedSlice",
        "input": [
          "feature_fusion/Shape_5",
          "feature_fusion/strided_slice_5/stack",
          "feature_fusion/strided_slice_5/stack_1",
          "feature_fusion/strided_slice_5/stack_2"
        ],
        "attr": {
          "ellipsis_mask": {
            "i": "0"
          },
          "new_axis_mask": {
            "i": "0"
          },
          "end_mask": {
            "i": "0"
          },
          "Index": {
            "type": "DT_INT32"
          },
          "shrink_axis_mask": {
            "i": "1"
          },
          "begin_mask": {
            "i": "0"
          },
          "T": {
            "type": "DT_INT32"
          }
        }
      },
      {
        "name": "feature_fusion/mul_4",
        "op": "Mul",
        "input": [
          "feature_fusion/strided_slice_4",
          "feature_fusion/mul_4/y"
        ],
        "attr": {
          "T": {
            "type": "DT_INT32"
          }
        }
      },
      {
        "name": "feature_fusion/mul_5",
        "op": "Mul",
        "input": [
          "feature_fusion/strided_slice_5",
          "feature_fusion/mul_5/y"
        ],
        "attr": {
          "T": {
            "type": "DT_INT32"
          }
        }
      },
      {
        "name": "feature_fusion/ResizeBilinear_2/size",
        "op": "Pack",
        "input": [
          "feature_fusion/mul_4",
          "feature_fusion/mul_5"
        ],
        "attr": {
          "axis": {
            "i": "0"
          },
          "T": {
            "type": "DT_INT32"
          },
          "N": {
            "i": "2"
          }
        }
      },
      {
        "name": "feature_fusion/ResizeBilinear_2",
        "op": "ResizeBilinear",
        "input": [
          "feature_fusion/Conv_3/Relu",
          "feature_fusion/ResizeBilinear_2/size"
        ],
        "attr": {
          "T": {
            "type": "DT_FLOAT"
          },
          "half_pixel_centers": {
            "b": false
          },
          "align_corners": {
            "b": false
          }
        }
      },
      {
        "name": "feature_fusion/concat_2",
        "op": "ConcatV2",
        "input": [
          "feature_fusion/ResizeBilinear_2",
          "resnet_v1_50/pool1/MaxPool",
          "feature_fusion/concat_2/axis"
        ],
        "attr": {
          "N": {
            "i": "2"
          },
          "T": {
            "type": "DT_FLOAT"
          },
          "Tidx": {
            "type": "DT_INT32"
          }
        }
      },
      {
        "name": "feature_fusion/Conv_4/Relu",
        "op": "_FusedConv2D",
        "input": [
          "feature_fusion/concat_2",
          "feature_fusion/Conv_4/Conv2D_weights",
          "feature_fusion/Conv_4/Conv2D_bn_offset"
        ],
        "device": "/device:CPU:0",
        "attr": {
          "fused_ops": {
            "list": {
              "s": [
                "Qmlhc0FkZA==",
                "UmVsdQ=="
              ]
            }
          },
          "num_host_args": {
            "i": "0"
          },
          "filter_format": {
            "s": "SFdJTw=="
          },
          "T": {
            "type": "DT_FLOAT"
          },
          "epsilon": {
            "f": 0.0
          },
          "leakyrelu_alpha": {
            "f": 0.2
          },
          "explicit_paddings": {
            "list": {}
          },
          "strides": {
            "list": {
              "i": [
                "1",
                "1",
                "1",
                "1"
              ]
            }
          },
          "TArgs": {
            "list": {
              "type": [
                "DT_FLOAT"
              ]
            }
          },
          "padding": {
            "s": "U0FNRQ=="
          },
          "dilations": {
            "list": {
              "i": [
                "1",
                "1",
                "1",
                "1"
              ]
            }
          },
          "use_cudnn_on_gpu": {
            "b": true
          },
          "data_format": {
            "s": "TkhXQw=="
          },
          "num_args": {
            "i": "1"
          }
        }
      },
      {
        "name": "feature_fusion/Conv_5/Relu",
        "op": "_FusedConv2D",
        "input": [
          "feature_fusion/Conv_4/Relu",
          "feature_fusion/Conv_5/Conv2D_weights",
          "feature_fusion/Conv_5/Conv2D_bn_offset"
        ],
        "device": "/device:CPU:0",
        "attr": {
          "num_host_args": {
            "i": "0"
          },
          "use_cudnn_on_gpu": {
            "b": true
          },
          "TArgs": {
            "list": {
              "type": [
                "DT_FLOAT"
              ]
            }
          },
          "dilations": {
            "list": {
              "i": [
                "1",
                "1",
                "1",
                "1"
              ]
            }
          },
          "num_args": {
            "i": "1"
          },
          "strides": {
            "list": {
              "i": [
                "1",
                "1",
                "1",
                "1"
              ]
            }
          },
          "explicit_paddings": {
            "list": {}
          },
          "T": {
            "type": "DT_FLOAT"
          },
          "padding": {
            "s": "U0FNRQ=="
          },
          "leakyrelu_alpha": {
            "f": 0.2
          },
          "filter_format": {
            "s": "SFdJTw=="
          },
          "data_format": {
            "s": "TkhXQw=="
          },
          "epsilon": {
            "f": 0.0
          },
          "fused_ops": {
            "list": {
              "s": [
                "Qmlhc0FkZA==",
                "UmVsdQ=="
              ]
            }
          }
        }
      },
      {
        "name": "feature_fusion/Conv_6/Relu",
        "op": "_FusedConv2D",
        "input": [
          "feature_fusion/Conv_5/Relu",
          "feature_fusion/Conv_6/Conv2D_weights",
          "feature_fusion/Conv_6/Conv2D_bn_offset"
        ],
        "device": "/device:CPU:0",
        "attr": {
          "padding": {
            "s": "U0FNRQ=="
          },
          "data_format": {
            "s": "TkhXQw=="
          },
          "fused_ops": {
            "list": {
              "s": [
                "Qmlhc0FkZA==",
                "UmVsdQ=="
              ]
            }
          },
          "explicit_paddings": {
            "list": {}
          },
          "T": {
            "type": "DT_FLOAT"
          },
          "use_cudnn_on_gpu": {
            "b": true
          },
          "strides": {
            "list": {
              "i": [
                "1",
                "1",
                "1",
                "1"
              ]
            }
          },
          "leakyrelu_alpha": {
            "f": 0.2
          },
          "TArgs": {
            "list": {
              "type": [
                "DT_FLOAT"
              ]
            }
          },
          "dilations": {
            "list": {
              "i": [
                "1",
                "1",
                "1",
                "1"
              ]
            }
          },
          "filter_format": {
            "s": "SFdJTw=="
          },
          "num_args": {
            "i": "1"
          },
          "epsilon": {
            "f": 0.0
          },
          "num_host_args": {
            "i": "0"
          }
        }
      },
      {
        "name": "feature_fusion/Conv_9/BiasAdd",
        "op": "_FusedConv2D",
        "input": [
          "feature_fusion/Conv_6/Relu",
          "feature_fusion/Conv_9/weights",
          "feature_fusion/Conv_9/biases"
        ],
        "device": "/device:CPU:0",
        "attr": {
          "data_format": {
            "s": "TkhXQw=="
          },
          "TArgs": {
            "list": {
              "type": [
                "DT_FLOAT"
              ]
            }
          },
          "filter_format": {
            "s": "SFdJTw=="
          },
          "strides": {
            "list": {
              "i": [
                "1",
                "1",
                "1",
                "1"
              ]
            }
          },
          "use_cudnn_on_gpu": {
            "b": true
          },
          "padding": {
            "s": "U0FNRQ=="
          },
          "T": {
            "type": "DT_FLOAT"
          },
          "leakyrelu_alpha": {
            "f": 0.2
          },
          "num_host_args": {
            "i": "0"
          },
          "epsilon": {
            "f": 0.0
          },
          "num_args": {
            "i": "1"
          },
          "dilations": {
            "list": {
              "i": [
                "1",
                "1",
                "1",
                "1"
              ]
            }
          },
          "fused_ops": {
            "list": {
              "s": [
                "Qmlhc0FkZA=="
              ]
            }
          },
          "explicit_paddings": {
            "list": {}
          }
        }
      },
      {
        "name": "feature_fusion/Conv_7/BiasAdd",
        "op": "_FusedConv2D",
        "input": [
          "feature_fusion/Conv_6/Relu",
          "feature_fusion/Conv_7/weights",
          "feature_fusion/Conv_7/biases"
        ],
        "device": "/device:CPU:0",
        "attr": {
          "filter_format": {
            "s": "SFdJTw=="
          },
          "epsilon": {
            "f": 0.0
          },
          "fused_ops": {
            "list": {
              "s": [
                "Qmlhc0FkZA=="
              ]
            }
          },
          "TArgs": {
            "list": {
              "type": [
                "DT_FLOAT"
              ]
            }
          },
          "strides": {
            "list": {
              "i": [
                "1",
                "1",
                "1",
                "1"
              ]
            }
          },
          "T": {
            "type": "DT_FLOAT"
          },
          "use_cudnn_on_gpu": {
            "b": true
          },
          "leakyrelu_alpha": {
            "f": 0.2
          },
          "explicit_paddings": {
            "list": {}
          },
          "padding": {
            "s": "U0FNRQ=="
          },
          "dilations": {
            "list": {
              "i": [
                "1",
                "1",
                "1",
                "1"
              ]
            }
          },
          "data_format": {
            "s": "TkhXQw=="
          },
          "num_args": {
            "i": "1"
          },
          "num_host_args": {
            "i": "0"
          }
        }
      },
      {
        "name": "feature_fusion/Conv_8/BiasAdd",
        "op": "_FusedConv2D",
        "input": [
          "feature_fusion/Conv_6/Relu",
          "feature_fusion/Conv_8/weights",
          "feature_fusion/Conv_8/biases"
        ],
        "device": "/device:CPU:0",
        "attr": {
          "filter_format": {
            "s": "SFdJTw=="
          },
          "data_format": {
            "s": "TkhXQw=="
          },
          "padding": {
            "s": "U0FNRQ=="
          },
          "T": {
            "type": "DT_FLOAT"
          },
          "dilations": {
            "list": {
              "i": [
                "1",
                "1",
                "1",
                "1"
              ]
            }
          },
          "explicit_paddings": {
            "list": {}
          },
          "epsilon": {
            "f": 0.0
          },
          "leakyrelu_alpha": {
            "f": 0.2
          },
          "strides": {
            "list": {
              "i": [
                "1",
                "1",
                "1",
                "1"
              ]
            }
          },
          "use_cudnn_on_gpu": {
            "b": true
          },
          "fused_ops": {
            "list": {
              "s": [
                "Qmlhc0FkZA=="
              ]
            }
          },
          "TArgs": {
            "list": {
              "type": [
                "DT_FLOAT"
              ]
            }
          },
          "num_args": {
            "i": "1"
          },
          "num_host_args": {
            "i": "0"
          }
        }
      },
      {
        "name": "feature_fusion/Conv_9/Sigmoid",
        "op": "Sigmoid",
        "input": [
          "feature_fusion/Conv_9/BiasAdd"
        ],
        "attr": {
          "T": {
            "type": "DT_FLOAT"
          }
        }
      },
      {
        "name": "feature_fusion/Conv_7/Sigmoid",
        "op": "Sigmoid",
        "input": [
          "feature_fusion/Conv_7/BiasAdd"
        ],
        "attr": {
          "T": {
            "type": "DT_FLOAT"
          }
        }
      },
      {
        "name": "feature_fusion/Conv_8/Sigmoid",
        "op": "Sigmoid",
        "input": [
          "feature_fusion/Conv_8/BiasAdd"
        ],
        "attr": {
          "T": {
            "type": "DT_FLOAT"
          }
        }
      },
      {
        "name": "feature_fusion/sub",
        "op": "Sub",
        "input": [
          "feature_fusion/Conv_9/Sigmoid",
          "feature_fusion/sub/y"
        ],
        "attr": {
          "T": {
            "type": "DT_FLOAT"
          }
        }
      },
      {
        "name": "feature_fusion/mul_6",
        "op": "Mul",
        "input": [
          "feature_fusion/Conv_8/Sigmoid",
          "feature_fusion/mul_6/y"
        ],
        "attr": {
          "T": {
            "type": "DT_FLOAT"
          }
        }
      },
      {
        "name": "feature_fusion/mul_7",
        "op": "Mul",
        "input": [
          "feature_fusion/sub",
          "feature_fusion/mul_7/y"
        ],
        "attr": {
          "T": {
            "type": "DT_FLOAT"
          }
        }
      },
      {
        "name": "feature_fusion/concat_3",
        "op": "ConcatV2",
        "input": [
          "feature_fusion/mul_6",
          "feature_fusion/mul_7",
          "feature_fusion/concat_3/axis"
        ],
        "attr": {
          "T": {
            "type": "DT_FLOAT"
          },
          "Tidx": {
            "type": "DT_INT32"
          },
          "N": {
            "i": "2"
          }
        }
      }
    ],
    "library": {},
    "versions": {}
  },
  "weightsManifest": [
    {
      "paths": [
        "group1-shard1of23.bin",
        "group1-shard2of23.bin",
        "group1-shard3of23.bin",
        "group1-shard4of23.bin",
        "group1-shard5of23.bin",
        "group1-shard6of23.bin",
        "group1-shard7of23.bin",
        "group1-shard8of23.bin",
        "group1-shard9of23.bin",
        "group1-shard10of23.bin",
        "group1-shard11of23.bin",
        "group1-shard12of23.bin",
        "group1-shard13of23.bin",
        "group1-shard14of23.bin",
        "group1-shard15of23.bin",
        "group1-shard16of23.bin",
        "group1-shard17of23.bin",
        "group1-shard18of23.bin",
        "group1-shard19of23.bin",
        "group1-shard20of23.bin",
        "group1-shard21of23.bin",
        "group1-shard22of23.bin",
        "group1-shard23of23.bin"
      ],
      "weights": [
        {
          "name": "feature_fusion/Conv_7/weights",
          "shape": [
            1,
            1,
            32,
            1
          ],
          "dtype": "float32"
        },
        {
          "name": "feature_fusion/Conv_7/biases",
          "shape": [
            1
          ],
          "dtype": "float32"
        },
        {
          "name": "feature_fusion/Conv_8/weights",
          "shape": [
            1,
            1,
            32,
            4
          ],
          "dtype": "float32"
        },
        {
          "name": "feature_fusion/Conv_8/biases",
          "shape": [
            4
          ],
          "dtype": "float32"
        },
        {
          "name": "feature_fusion/mul_6/y",
          "shape": [],
          "dtype": "float32"
        },
        {
          "name": "feature_fusion/strided_slice_4/stack",
          "shape": [
            1
          ],
          "dtype": "int32"
        },
        {
          "name": "feature_fusion/strided_slice_4/stack_1",
          "shape": [
            1
          ],
          "dtype": "int32"
        },
        {
          "name": "feature_fusion/strided_slice_4/stack_2",
          "shape": [
            1
          ],
          "dtype": "int32"
        },
        {
          "name": "feature_fusion/mul_4/y",
          "shape": [],
          "dtype": "int32"
        },
        {
          "name": "feature_fusion/strided_slice_2/stack",
          "shape": [
            1
          ],
          "dtype": "int32"
        },
        {
          "name": "feature_fusion/strided_slice_2/stack_1",
          "shape": [
            1
          ],
          "dtype": "int32"
        },
        {
          "name": "feature_fusion/strided_slice_2/stack_2",
          "shape": [
            1
          ],
          "dtype": "int32"
        },
        {
          "name": "feature_fusion/mul_2/y",
          "shape": [],
          "dtype": "int32"
        },
        {
          "name": "feature_fusion/strided_slice/stack",
          "shape": [
            1
          ],
          "dtype": "int32"
        },
        {
          "name": "feature_fusion/strided_slice/stack_1",
          "shape": [
            1
          ],
          "dtype": "int32"
        },
        {
          "name": "feature_fusion/strided_slice/stack_2",
          "shape": [
            1
          ],
          "dtype": "int32"
        },
        {
          "name": "feature_fusion/mul/y",
          "shape": [],
          "dtype": "int32"
        },
        {
          "name": "resnet_v1_50/block3/unit_6/bottleneck_v1/Pad/paddings",
          "shape": [
            4,
            2
          ],
          "dtype": "int32"
        },
        {
          "name": "feature_fusion/strided_slice_1/stack",
          "shape": [
            1
          ],
          "dtype": "int32"
        },
        {
          "name": "feature_fusion/strided_slice_1/stack_1",
          "shape": [
            1
          ],
          "dtype": "int32"
        },
        {
          "name": "feature_fusion/strided_slice_1/stack_2",
          "shape": [
            1
          ],
          "dtype": "int32"
        },
        {
          "name": "feature_fusion/mul_1/y",
          "shape": [],
          "dtype": "int32"
        },
        {
          "name": "resnet_v1_50/block2/unit_4/bottleneck_v1/Pad/paddings",
          "shape": [
            4,
            2
          ],
          "dtype": "int32"
        },
        {
          "name": "feature_fusion/concat/axis",
          "shape": [],
          "dtype": "int32"
        },
        {
          "name": "feature_fusion/strided_slice_3/stack",
          "shape": [
            1
          ],
          "dtype": "int32"
        },
        {
          "name": "feature_fusion/strided_slice_3/stack_1",
          "shape": [
            1
          ],
          "dtype": "int32"
        },
        {
          "name": "feature_fusion/strided_slice_3/stack_2",
          "shape": [
            1
          ],
          "dtype": "int32"
        },
        {
          "name": "feature_fusion/mul_3/y",
          "shape": [],
          "dtype": "int32"
        },
        {
          "name": "resnet_v1_50/block1/unit_3/bottleneck_v1/Pad/paddings",
          "shape": [
            4,
            2
          ],
          "dtype": "int32"
        },
        {
          "name": "feature_fusion/concat_1/axis",
          "shape": [],
          "dtype": "int32"
        },
        {
          "name": "feature_fusion/strided_slice_5/stack",
          "shape": [
            1
          ],
          "dtype": "int32"
        },
        {
          "name": "feature_fusion/strided_slice_5/stack_1",
          "shape": [
            1
          ],
          "dtype": "int32"
        },
        {
          "name": "feature_fusion/strided_slice_5/stack_2",
          "shape": [
            1
          ],
          "dtype": "int32"
        },
        {
          "name": "feature_fusion/mul_5/y",
          "shape": [],
          "dtype": "int32"
        },
        {
          "name": "resnet_v1_50/Pad/paddings",
          "shape": [
            4,
            2
          ],
          "dtype": "int32"
        },
        {
          "name": "feature_fusion/concat_2/axis",
          "shape": [],
          "dtype": "int32"
        },
        {
          "name": "feature_fusion/Conv_9/weights",
          "shape": [
            1,
            1,
            32,
            1
          ],
          "dtype": "float32"
        },
        {
          "name": "feature_fusion/Conv_9/biases",
          "shape": [
            1
          ],
          "dtype": "float32"
        },
        {
          "name": "feature_fusion/sub/y",
          "shape": [],
          "dtype": "float32"
        },
        {
          "name": "feature_fusion/mul_7/y",
          "shape": [],
          "dtype": "float32"
        },
        {
          "name": "feature_fusion/concat_3/axis",
          "shape": [],
          "dtype": "int32"
        },
        {
          "name": "resnet_v1_50/conv1/Conv2D_weights",
          "shape": [
            7,
            7,
            3,
            64
          ],
          "dtype": "float32"
        },
        {
          "name": "resnet_v1_50/conv1/Conv2D_bn_offset",
          "shape": [
            64
          ],
          "dtype": "float32"
        },
        {
          "name": "resnet_v1_50/block4/unit_2/bottleneck_v1/conv2/Conv2D_weights",
          "shape": [
            3,
            3,
            512,
            512
          ],
          "dtype": "float32"
        },
        {
          "name": "resnet_v1_50/block1/unit_1/bottleneck_v1/shortcut/Conv2D_weights",
          "shape": [
            1,
            1,
            64,
            256
          ],
          "dtype": "float32"
        },
        {
          "name": "resnet_v1_50/block1/unit_1/bottleneck_v1/shortcut/Conv2D_bn_offset",
          "shape": [
            256
          ],
          "dtype": "float32"
        },
        {
          "name": "resnet_v1_50/block1/unit_1/bottleneck_v1/conv1/Conv2D_weights",
          "shape": [
            1,
            1,
            64,
            64
          ],
          "dtype": "float32"
        },
        {
          "name": "resnet_v1_50/block4/unit_2/bottleneck_v1/conv2/Conv2D_bn_offset",
          "shape": [
            512
          ],
          "dtype": "float32"
        },
        {
          "name": "resnet_v1_50/block1/unit_1/bottleneck_v1/conv1/Conv2D_bn_offset",
          "shape": [
            64
          ],
          "dtype": "float32"
        },
        {
          "name": "resnet_v1_50/block1/unit_1/bottleneck_v1/conv2/Conv2D_weights",
          "shape": [
            3,
            3,
            64,
            64
          ],
          "dtype": "float32"
        },
        {
          "name": "resnet_v1_50/block1/unit_1/bottleneck_v1/conv2/Conv2D_bn_offset",
          "shape": [
            64
          ],
          "dtype": "float32"
        },
        {
          "name": "resnet_v1_50/block4/unit_2/bottleneck_v1/conv3/Conv2D_weights",
          "shape": [
            1,
            1,
            512,
            2048
          ],
          "dtype": "float32"
        },
        {
          "name": "resnet_v1_50/block1/unit_1/bottleneck_v1/conv3/Conv2D_weights",
          "shape": [
            1,
            1,
            64,
            256
          ],
          "dtype": "float32"
        },
        {
          "name": "feature_fusion/Conv_5/Conv2D_weights",
          "shape": [
            3,
            3,
            32,
            32
          ],
          "dtype": "float32"
        },
        {
          "name": "resnet_v1_50/block1/unit_1/bottleneck_v1/conv3/Conv2D_bn_offset",
          "shape": [
            256
          ],
          "dtype": "float32"
        },
        {
          "name": "resnet_v1_50/block1/unit_2/bottleneck_v1/conv1/Conv2D_weights",
          "shape": [
            1,
            1,
            256,
            64
          ],
          "dtype": "float32"
        },
        {
          "name": "resnet_v1_50/block4/unit_2/bottleneck_v1/conv3/Conv2D_bn_offset",
          "shape": [
            2048
          ],
          "dtype": "float32"
        },
        {
          "name": "resnet_v1_50/block1/unit_2/bottleneck_v1/conv1/Conv2D_bn_offset",
          "shape": [
            64
          ],
          "dtype": "float32"
        },
        {
          "name": "resnet_v1_50/block1/unit_2/bottleneck_v1/conv2/Conv2D_weights",
          "shape": [
            3,
            3,
            64,
            64
          ],
          "dtype": "float32"
        },
        {
          "name": "resnet_v1_50/block1/unit_2/bottleneck_v1/conv2/Conv2D_bn_offset",
          "shape": [
            64
          ],
          "dtype": "float32"
        },
        {
          "name": "resnet_v1_50/block1/unit_2/bottleneck_v1/conv3/Conv2D_weights",
          "shape": [
            1,
            1,
            64,
            256
          ],
          "dtype": "float32"
        },
        {
          "name": "resnet_v1_50/block4/unit_3/bottleneck_v1/conv1/Conv2D_weights",
          "shape": [
            1,
            1,
            2048,
            512
          ],
          "dtype": "float32"
        },
        {
          "name": "resnet_v1_50/block1/unit_2/bottleneck_v1/conv3/Conv2D_bn_offset",
          "shape": [
            256
          ],
          "dtype": "float32"
        },
        {
          "name": "resnet_v1_50/block1/unit_3/bottleneck_v1/conv1/Conv2D_weights",
          "shape": [
            1,
            1,
            256,
            64
          ],
          "dtype": "float32"
        },
        {
          "name": "resnet_v1_50/block1/unit_3/bottleneck_v1/conv1/Conv2D_bn_offset",
          "shape": [
            64
          ],
          "dtype": "float32"
        },
        {
          "name": "resnet_v1_50/block4/unit_3/bottleneck_v1/conv1/Conv2D_bn_offset",
          "shape": [
            512
          ],
          "dtype": "float32"
        },
        {
          "name": "resnet_v1_50/block1/unit_3/bottleneck_v1/conv2/Conv2D_weights",
          "shape": [
            3,
            3,
            64,
            64
          ],
          "dtype": "float32"
        },
        {
          "name": "feature_fusion/Conv_5/Conv2D_bn_offset",
          "shape": [
            32
          ],
          "dtype": "float32"
        },
        {
          "name": "resnet_v1_50/block1/unit_3/bottleneck_v1/conv2/Conv2D_bn_offset",
          "shape": [
            64
          ],
          "dtype": "float32"
        },
        {
          "name": "resnet_v1_50/block1/unit_3/bottleneck_v1/conv3/Conv2D_weights",
          "shape": [
            1,
            1,
            64,
            256
          ],
          "dtype": "float32"
        },
        {
          "name": "resnet_v1_50/block4/unit_3/bottleneck_v1/conv2/Conv2D_weights",
          "shape": [
            3,
            3,
            512,
            512
          ],
          "dtype": "float32"
        },
        {
          "name": "resnet_v1_50/block1/unit_3/bottleneck_v1/conv3/Conv2D_bn_offset",
          "shape": [
            256
          ],
          "dtype": "float32"
        },
        {
          "name": "resnet_v1_50/block2/unit_1/bottleneck_v1/shortcut/Conv2D_weights",
          "shape": [
            1,
            1,
            256,
            512
          ],
          "dtype": "float32"
        },
        {
          "name": "resnet_v1_50/block2/unit_1/bottleneck_v1/shortcut/Conv2D_bn_offset",
          "shape": [
            512
          ],
          "dtype": "float32"
        },
        {
          "name": "resnet_v1_50/block2/unit_1/bottleneck_v1/conv1/Conv2D_weights",
          "shape": [
            1,
            1,
            256,
            128
          ],
          "dtype": "float32"
        },
        {
          "name": "resnet_v1_50/block4/unit_3/bottleneck_v1/conv2/Conv2D_bn_offset",
          "shape": [
            512
          ],
          "dtype": "float32"
        },
        {
          "name": "resnet_v1_50/block2/unit_1/bottleneck_v1/conv1/Conv2D_bn_offset",
          "shape": [
            128
          ],
          "dtype": "float32"
        },
        {
          "name": "resnet_v1_50/block2/unit_1/bottleneck_v1/conv2/Conv2D_weights",
          "shape": [
            3,
            3,
            128,
            128
          ],
          "dtype": "float32"
        },
        {
          "name": "resnet_v1_50/block2/unit_1/bottleneck_v1/conv2/Conv2D_bn_offset",
          "shape": [
            128
          ],
          "dtype": "float32"
        },
        {
          "name": "resnet_v1_50/block4/unit_3/bottleneck_v1/conv3/Conv2D_weights",
          "shape": [
            1,
            1,
            512,
            2048
          ],
          "dtype": "float32"
        },
        {
          "name": "resnet_v1_50/block2/unit_1/bottleneck_v1/conv3/Conv2D_weights",
          "shape": [
            1,
            1,
            128,
            512
          ],
          "dtype": "float32"
        },
        {
          "name": "feature_fusion/Conv_6/Conv2D_weights",
          "shape": [
            3,
            3,
            32,
            32
          ],
          "dtype": "float32"
        },
        {
          "name": "resnet_v1_50/block2/unit_1/bottleneck_v1/conv3/Conv2D_bn_offset",
          "shape": [
            512
          ],
          "dtype": "float32"
        },
        {
          "name": "resnet_v1_50/block2/unit_2/bottleneck_v1/conv1/Conv2D_weights",
          "shape": [
            1,
            1,
            512,
            128
          ],
          "dtype": "float32"
        },
        {
          "name": "resnet_v1_50/block4/unit_3/bottleneck_v1/conv3/Conv2D_bn_offset",
          "shape": [
            2048
          ],
          "dtype": "float32"
        },
        {
          "name": "resnet_v1_50/block2/unit_2/bottleneck_v1/conv1/Conv2D_bn_offset",
          "shape": [
            128
          ],
          "dtype": "float32"
        },
        {
          "name": "resnet_v1_50/block2/unit_2/bottleneck_v1/conv2/Conv2D_weights",
          "shape": [
            3,
            3,
            128,
            128
          ],
          "dtype": "float32"
        },
        {
          "name": "resnet_v1_50/block2/unit_2/bottleneck_v1/conv2/Conv2D_bn_offset",
          "shape": [
            128
          ],
          "dtype": "float32"
        },
        {
          "name": "resnet_v1_50/block2/unit_2/bottleneck_v1/conv3/Conv2D_weights",
          "shape": [
            1,
            1,
            128,
            512
          ],
          "dtype": "float32"
        },
        {
          "name": "resnet_v1_50/block2/unit_2/bottleneck_v1/conv3/Conv2D_bn_offset",
          "shape": [
            512
          ],
          "dtype": "float32"
        },
        {
          "name": "resnet_v1_50/block2/unit_3/bottleneck_v1/conv1/Conv2D_weights",
          "shape": [
            1,
            1,
            512,
            128
          ],
          "dtype": "float32"
        },
        {
          "name": "resnet_v1_50/block2/unit_3/bottleneck_v1/conv1/Conv2D_bn_offset",
          "shape": [
            128
          ],
          "dtype": "float32"
        },
        {
          "name": "resnet_v1_50/block2/unit_3/bottleneck_v1/conv2/Conv2D_weights",
          "shape": [
            3,
            3,
            128,
            128
          ],
          "dtype": "float32"
        },
        {
          "name": "resnet_v1_50/block2/unit_3/bottleneck_v1/conv2/Conv2D_bn_offset",
          "shape": [
            128
          ],
          "dtype": "float32"
        },
        {
          "name": "resnet_v1_50/block2/unit_3/bottleneck_v1/conv3/Conv2D_weights",
          "shape": [
            1,
            1,
            128,
            512
          ],
          "dtype": "float32"
        },
        {
          "name": "resnet_v1_50/block2/unit_3/bottleneck_v1/conv3/Conv2D_bn_offset",
          "shape": [
            512
          ],
          "dtype": "float32"
        },
        {
          "name": "resnet_v1_50/block2/unit_4/bottleneck_v1/conv1/Conv2D_weights",
          "shape": [
            1,
            1,
            512,
            128
          ],
          "dtype": "float32"
        },
        {
          "name": "resnet_v1_50/block2/unit_4/bottleneck_v1/conv1/Conv2D_bn_offset",
          "shape": [
            128
          ],
          "dtype": "float32"
        },
        {
          "name": "resnet_v1_50/block2/unit_4/bottleneck_v1/conv2/Conv2D_weights",
          "shape": [
            3,
            3,
            128,
            128
          ],
          "dtype": "float32"
        },
        {
          "name": "resnet_v1_50/block2/unit_4/bottleneck_v1/conv2/Conv2D_bn_offset",
          "shape": [
            128
          ],
          "dtype": "float32"
        },
        {
          "name": "feature_fusion/Conv/Conv2D_weights",
          "shape": [
            1,
            1,
            2560,
            128
          ],
          "dtype": "float32"
        },
        {
          "name": "resnet_v1_50/block2/unit_4/bottleneck_v1/conv3/Conv2D_weights",
          "shape": [
            1,
            1,
            128,
            512
          ],
          "dtype": "float32"
        },
        {
          "name": "resnet_v1_50/block2/unit_4/bottleneck_v1/conv3/Conv2D_bn_offset",
          "shape": [
            512
          ],
          "dtype": "float32"
        },
        {
          "name": "resnet_v1_50/block3/unit_1/bottleneck_v1/shortcut/Conv2D_weights",
          "shape": [
            1,
            1,
            512,
            1024
          ],
          "dtype": "float32"
        },
        {
          "name": "feature_fusion/Conv/Conv2D_bn_offset",
          "shape": [
            128
          ],
          "dtype": "float32"
        },
        {
          "name": "resnet_v1_50/block3/unit_1/bottleneck_v1/shortcut/Conv2D_bn_offset",
          "shape": [
            1024
          ],
          "dtype": "float32"
        },
        {
          "name": "resnet_v1_50/block3/unit_1/bottleneck_v1/conv1/Conv2D_weights",
          "shape": [
            1,
            1,
            512,
            256
          ],
          "dtype": "float32"
        },
        {
          "name": "feature_fusion/Conv_6/Conv2D_bn_offset",
          "shape": [
            32
          ],
          "dtype": "float32"
        },
        {
          "name": "resnet_v1_50/block3/unit_1/bottleneck_v1/conv1/Conv2D_bn_offset",
          "shape": [
            256
          ],
          "dtype": "float32"
        },
        {
          "name": "resnet_v1_50/block3/unit_1/bottleneck_v1/conv2/Conv2D_weights",
          "shape": [
            3,
            3,
            256,
            256
          ],
          "dtype": "float32"
        },
        {
          "name": "feature_fusion/Conv_1/Conv2D_weights",
          "shape": [
            3,
            3,
            128,
            128
          ],
          "dtype": "float32"
        },
        {
          "name": "resnet_v1_50/block3/unit_1/bottleneck_v1/conv2/Conv2D_bn_offset",
          "shape": [
            256
          ],
          "dtype": "float32"
        },
        {
          "name": "resnet_v1_50/block3/unit_1/bottleneck_v1/conv3/Conv2D_weights",
          "shape": [
            1,
            1,
            256,
            1024
          ],
          "dtype": "float32"
        },
        {
          "name": "feature_fusion/Conv_1/Conv2D_bn_offset",
          "shape": [
            128
          ],
          "dtype": "float32"
        },
        {
          "name": "resnet_v1_50/block3/unit_1/bottleneck_v1/conv3/Conv2D_bn_offset",
          "shape": [
            1024
          ],
          "dtype": "float32"
        },
        {
          "name": "resnet_v1_50/block3/unit_2/bottleneck_v1/conv1/Conv2D_weights",
          "shape": [
            1,
            1,
            1024,
            256
          ],
          "dtype": "float32"
        },
        {
          "name": "resnet_v1_50/block3/unit_2/bottleneck_v1/conv1/Conv2D_bn_offset",
          "shape": [
            256
          ],
          "dtype": "float32"
        },
        {
          "name": "resnet_v1_50/block3/unit_2/bottleneck_v1/conv2/Conv2D_weights",
          "shape": [
            3,
            3,
            256,
            256
          ],
          "dtype": "float32"
        },
        {
          "name": "resnet_v1_50/block3/unit_2/bottleneck_v1/conv2/Conv2D_bn_offset",
          "shape": [
            256
          ],
          "dtype": "float32"
        },
        {
          "name": "resnet_v1_50/block3/unit_2/bottleneck_v1/conv3/Conv2D_weights",
          "shape": [
            1,
            1,
            256,
            1024
          ],
          "dtype": "float32"
        },
        {
          "name": "resnet_v1_50/block3/unit_2/bottleneck_v1/conv3/Conv2D_bn_offset",
          "shape": [
            1024
          ],
          "dtype": "float32"
        },
        {
          "name": "resnet_v1_50/block3/unit_3/bottleneck_v1/conv1/Conv2D_weights",
          "shape": [
            1,
            1,
            1024,
            256
          ],
          "dtype": "float32"
        },
        {
          "name": "resnet_v1_50/block3/unit_3/bottleneck_v1/conv1/Conv2D_bn_offset",
          "shape": [
            256
          ],
          "dtype": "float32"
        },
        {
          "name": "resnet_v1_50/block3/unit_3/bottleneck_v1/conv2/Conv2D_weights",
          "shape": [
            3,
            3,
            256,
            256
          ],
          "dtype": "float32"
        },
        {
          "name": "resnet_v1_50/block3/unit_3/bottleneck_v1/conv2/Conv2D_bn_offset",
          "shape": [
            256
          ],
          "dtype": "float32"
        },
        {
          "name": "resnet_v1_50/block3/unit_3/bottleneck_v1/conv3/Conv2D_weights",
          "shape": [
            1,
            1,
            256,
            1024
          ],
          "dtype": "float32"
        },
        {
          "name": "resnet_v1_50/block3/unit_3/bottleneck_v1/conv3/Conv2D_bn_offset",
          "shape": [
            1024
          ],
          "dtype": "float32"
        },
        {
          "name": "resnet_v1_50/block3/unit_4/bottleneck_v1/conv1/Conv2D_weights",
          "shape": [
            1,
            1,
            1024,
            256
          ],
          "dtype": "float32"
        },
        {
          "name": "resnet_v1_50/block3/unit_4/bottleneck_v1/conv1/Conv2D_bn_offset",
          "shape": [
            256
          ],
          "dtype": "float32"
        },
        {
          "name": "feature_fusion/Conv_2/Conv2D_weights",
          "shape": [
            1,
            1,
            384,
            64
          ],
          "dtype": "float32"
        },
        {
          "name": "resnet_v1_50/block3/unit_4/bottleneck_v1/conv2/Conv2D_weights",
          "shape": [
            3,
            3,
            256,
            256
          ],
          "dtype": "float32"
        },
        {
          "name": "resnet_v1_50/block3/unit_4/bottleneck_v1/conv2/Conv2D_bn_offset",
          "shape": [
            256
          ],
          "dtype": "float32"
        },
        {
          "name": "feature_fusion/Conv_2/Conv2D_bn_offset",
          "shape": [
            64
          ],
          "dtype": "float32"
        },
        {
          "name": "resnet_v1_50/block3/unit_4/bottleneck_v1/conv3/Conv2D_weights",
          "shape": [
            1,
            1,
            256,
            1024
          ],
          "dtype": "float32"
        },
        {
          "name": "resnet_v1_50/block3/unit_4/bottleneck_v1/conv3/Conv2D_bn_offset",
          "shape": [
            1024
          ],
          "dtype": "float32"
        },
        {
          "name": "resnet_v1_50/block3/unit_5/bottleneck_v1/conv1/Conv2D_weights",
          "shape": [
            1,
            1,
            1024,
            256
          ],
          "dtype": "float32"
        },
        {
          "name": "resnet_v1_50/block3/unit_5/bottleneck_v1/conv1/Conv2D_bn_offset",
          "shape": [
            256
          ],
          "dtype": "float32"
        },
        {
          "name": "feature_fusion/Conv_3/Conv2D_weights",
          "shape": [
            3,
            3,
            64,
            64
          ],
          "dtype": "float32"
        },
        {
          "name": "resnet_v1_50/block3/unit_5/bottleneck_v1/conv2/Conv2D_weights",
          "shape": [
            3,
            3,
            256,
            256
          ],
          "dtype": "float32"
        },
        {
          "name": "resnet_v1_50/block3/unit_5/bottleneck_v1/conv2/Conv2D_bn_offset",
          "shape": [
            256
          ],
          "dtype": "float32"
        },
        {
          "name": "feature_fusion/Conv_3/Conv2D_bn_offset",
          "shape": [
            64
          ],
          "dtype": "float32"
        },
        {
          "name": "resnet_v1_50/block3/unit_5/bottleneck_v1/conv3/Conv2D_weights",
          "shape": [
            1,
            1,
            256,
            1024
          ],
          "dtype": "float32"
        },
        {
          "name": "resnet_v1_50/block3/unit_5/bottleneck_v1/conv3/Conv2D_bn_offset",
          "shape": [
            1024
          ],
          "dtype": "float32"
        },
        {
          "name": "resnet_v1_50/block3/unit_6/bottleneck_v1/conv1/Conv2D_weights",
          "shape": [
            1,
            1,
            1024,
            256
          ],
          "dtype": "float32"
        },
        {
          "name": "resnet_v1_50/block3/unit_6/bottleneck_v1/conv1/Conv2D_bn_offset",
          "shape": [
            256
          ],
          "dtype": "float32"
        },
        {
          "name": "resnet_v1_50/block3/unit_6/bottleneck_v1/conv2/Conv2D_weights",
          "shape": [
            3,
            3,
            256,
            256
          ],
          "dtype": "float32"
        },
        {
          "name": "resnet_v1_50/block3/unit_6/bottleneck_v1/conv2/Conv2D_bn_offset",
          "shape": [
            256
          ],
          "dtype": "float32"
        },
        {
          "name": "resnet_v1_50/block3/unit_6/bottleneck_v1/conv3/Conv2D_weights",
          "shape": [
            1,
            1,
            256,
            1024
          ],
          "dtype": "float32"
        },
        {
          "name": "resnet_v1_50/block3/unit_6/bottleneck_v1/conv3/Conv2D_bn_offset",
          "shape": [
            1024
          ],
          "dtype": "float32"
        },
        {
          "name": "resnet_v1_50/block4/unit_1/bottleneck_v1/shortcut/Conv2D_weights",
          "shape": [
            1,
            1,
            1024,
            2048
          ],
          "dtype": "float32"
        },
        {
          "name": "resnet_v1_50/block4/unit_1/bottleneck_v1/shortcut/Conv2D_bn_offset",
          "shape": [
            2048
          ],
          "dtype": "float32"
        },
        {
          "name": "resnet_v1_50/block4/unit_1/bottleneck_v1/conv1/Conv2D_weights",
          "shape": [
            1,
            1,
            1024,
            512
          ],
          "dtype": "float32"
        },
        {
          "name": "resnet_v1_50/block4/unit_1/bottleneck_v1/conv1/Conv2D_bn_offset",
          "shape": [
            512
          ],
          "dtype": "float32"
        },
        {
          "name": "resnet_v1_50/block4/unit_1/bottleneck_v1/conv2/Conv2D_weights",
          "shape": [
            3,
            3,
            512,
            512
          ],
          "dtype": "float32"
        },
        {
          "name": "resnet_v1_50/block4/unit_1/bottleneck_v1/conv2/Conv2D_bn_offset",
          "shape": [
            512
          ],
          "dtype": "float32"
        },
        {
          "name": "resnet_v1_50/block4/unit_1/bottleneck_v1/conv3/Conv2D_weights",
          "shape": [
            1,
            1,
            512,
            2048
          ],
          "dtype": "float32"
        },
        {
          "name": "feature_fusion/Conv_4/Conv2D_weights",
          "shape": [
            1,
            1,
            128,
            32
          ],
          "dtype": "float32"
        },
        {
          "name": "resnet_v1_50/block4/unit_1/bottleneck_v1/conv3/Conv2D_bn_offset",
          "shape": [
            2048
          ],
          "dtype": "float32"
        },
        {
          "name": "resnet_v1_50/block4/unit_2/bottleneck_v1/conv1/Conv2D_weights",
          "shape": [
            1,
            1,
            2048,
            512
          ],
          "dtype": "float32"
        },
        {
          "name": "resnet_v1_50/block4/unit_2/bottleneck_v1/conv1/Conv2D_bn_offset",
          "shape": [
            512
          ],
          "dtype": "float32"
        },
        {
          "name": "feature_fusion/Conv_4/Conv2D_bn_offset",
          "shape": [
            32
          ],
          "dtype": "float32"
        }
      ]
    }
  ]
}